GRU_JAAD.pth (torch, 808929 bytes, 5 tensors)

gru.weight_ih_l0 f4 [768, 4]
00000000: c0f4 8a3c 3c15 71bd 7c56 9a3c 06ee 703d
00000010: 1acc 6bbd aae8 463d c8ae d8bc ae4f 373d
00000020: 7f27 a6bc 1fa8 4d3d eee2 3bbc fbe0 7b3b
00000030: 1c84 8dbc 0533 e83b 2de3 40bc b98c 8ebc
00000040: df52 16bd 62f0 7abd d149 5a3d b8b5 59bd
00000050: 8489 953c ceba 3a3d ae31 31bd 80a7 e93c
00000060: 3092 06bc f031 d43c 606b 503d b4bd 733d
00000070: 92fb 5fbd 28e1 6cbd b0fb 60bc d056 15bd
00000080: 504c 49bc 607d 4cbb 9c77 c73c 8879 363d
00000090: ccce a93c 20a3 273c e8da ae3c e0e0 7cbb
000000a0: 65d6 35bc 38f9 8fbc a44f 613d 9eeb fb3c
000000b0: d83f 543d e0e3 10bb 9000 3a3d 809a a0bb
000000c0: 5067 3abd aeae 5dbd 194e ee3c fca2 053c
000000d0: 04c1 a1bc f004 143c 90bb b63c 9e77 4d3d
000000e0: 06b1 453d c030 163c 1ab9 37bd 4838 433d
000000f0: f0d3 dd3c b22c 123d cc3c 9c3c 7898 d2bc
00000100: 5c86 85bc 525f 75bd 8820 6fbc 764d 6ebd
00000110: 0a27 92bc 647a 59bd 35f6 263d d64e 783c
00000120: 6c0c 983c 785f 113d 4020 9abc 7029 053d
00000130: 7cb7 e3bc e46f 0d3d 505c 023d aa6e 563d
00000140: 5e37 6d3d 808f 003c fc6a 77bd c0f3 9c3a
00000150: 463c 213d 0812 75bd 8ec6 363d cc05 64bd
00000160: 2e82 063d 50db 0e3c 8c5b bb3c 7cc3 b2bc
00000170: 10b1 de3b 1c79 013d 06cf 783d f095 10bc
00000180: 9e48 59bc 2689 303c 1e7c d8bc fec0 443c
00000190: 76b3 03bc 71be 4b3d 0b3e 15bc 2d40 223d
000001a0: 55b3 21bd 7cbd 0cbd 35cd 76bc d50a 5b3d
000001b0: 3042 343d befe 0ebd f0db edbc 7efe 253d
000001c0: 1260 553d c43f 37bd 3a06 05bd 1018 72bc
000001d0: f6c4 753d 583a e13c a0b1 56bc ac35 1fbd
000001e0: 0205 453d e8e2 dabc 589b 6c3c ecda 2e3d
000001f0: bc21 b33c be4f 3bbd 5225 5dbd a637 bfbb
00000200: b0a8 cbbb 4a40 163d cdad 5b3d 3243 323b
00000210: bc7c 693d 84ee 4e3d 5cba b13c 6228 2e3d
00000220: f261 5d3d 8262 0c3d a0f0 3cbd 28a3 cebc
00000230: 302c 7c3c 9089 6a3c 6441 7a3d 8040 92bc
00000240: ebee c63b db0b 7b3b f903 cdbc 5d49 50bd
00000250: f0f5 c83c 386e e6bc 082e 95bc 0adf 05bd
00000260: fec8 343d b8de 39bc 748f 3ebd c6bc 19bd
00000270: 445c 403d c884 473d cc27 ce3c 2835 233d
00000280: d46a 6e3d 686c 783c ce29 103d ec0f e03c
00000290: a4cd fe3c 70e5 ddbc c018 b33b e6c5 3d3d
000002a0: 9ac0 023d 6061 2fbb b42b 763d 9a17 29bd
000002b0: d4fb 74bd 888b 67bc 1ec7 593d 7ca9 0abd
000002c0: e8d1 e3bc 5a6e 29bd b023 2c3d c419 723d
000002d0: e03c a23b 80c6 d1ba d854 373c 70b9 8ebb
000002e0: 20a5 78bd 2c78 7e3d 94b4 b53c 0022 eeba
000002f0: 4bdf 033d 5ab8 a0bc 37de f7bc 02a5 273d
00000300: c0a8 cc3c d409 d0bc c48e bd3c c52a 03bd
00000310: 8a2b cebc 9787 ebbc 1cf9 76bc 377f d53c
00000320: 0038 fd38 e09a 43bd b644 463d bc4a 1a3d
00000330: 5809 39bc 207d b4bc 8a61 0fbd 7ecd 1dbd
00000340: 044e 40bd 78c3 cfbc 681d 843c 4690 283d
00000350: 9840 a13c 3401 0f3d 209e bbbb c000 493b
00000360: 60c7 883c 2a1d 27bd 97bc ae3c 9cc3 263c
00000370: 9c36 c43c 6c0d b7bc 9a85 053d c006 c93b
00000380: 7ced 0e3d 4084 5cbd 5e0c 3a3d 4a9e 703d
00000390: 78e7 45bd 9019 35bd c67a 463d 378a 1a3b
000003a0: 18f1 823c c25e 733d c4dd afbc fcb3 f33c
000003b0: 6008 1cbc a0d5 eb3c c25f 12bd 129b 5a3d
000003c0: 7a54 7ebd 3645 fa3b 410b fc3c 7240 8a3b
000003d0: b8db 363c ba7f 1e3d b052 ce3b f09e 09bd
000003e0: 6687 163d fc24 ba3c 4ed8 733d 183b 0c3c
000003f0: a814 d2bc 62cb 07bd fc91 1c3d e6b9 3b3d
0.016962409 -0.05885814 0.018840067 0.058820747 -0.057567693 0.04856173 -0.02645053 0.044753723
-0.020282505 0.05020916 -0.0114676785 0.003843366 -0.017274909 0.00708616 -0.011772913 -0.017401086
-0.036700126 -0.061264403 0.053293053 -0.053151816 0.01825405 0.045588307 -0.04326027 0.028522253
-0.008213565 0.025902718 0.05088365 0.059507087 -0.054683276 -0.057831913 -0.013731882 -0.036459744
-0.012286261 -0.003120266 0.024349026 0.044549495 0.020728491 0.010231763 0.021344617 -0.0038586184
-0.011098479 -0.017574891 0.05500759 0.030752 0.0518187 -0.002210848 0.045410693 -0.0049012303
-0.045508683 -0.054121666 0.029089974 0.008156534 -0.019745357 0.00903438 0.022306234 0.050162904
0.048264526 0.009166896 -0.04485426 0.047661096 0.027078599 0.035687156 0.019071959 -0.025707468
-0.01629942 -0.059905358 -0.014595158 -0.05817934 -0.01784088 -0.053095236 0.040762145 0.015155515
0.01856061 0.035491437 -0.018814206 0.03251022 -0.027797453 0.034530535 0.031826317 0.05235163
0.05791413 0.007846713 -0.060404763 0.0011974499 0.03936412 -0.05983165 0.04462295 -0.05566959
0.032838993 0.00871928 0.022870801 -0.02182173 0.00679601 0.03160964 0.060744308 -0.00882481
-0.013261942 0.010774886 -0.026426371 0.012008904 -0.008038392 0.049742166 -0.0091090305 0.039611984
-0.039477665 -0.034360394 -0.015063574 0.053477127 0.044008434 -0.03491091 -0.029035538 0.040525906
0.052093573 -0.044738546 -0.03247664 -0.014776245 0.06000229 0.02749364 -0.013103873 -0.038869545
0.04810048 -0.026719525 0.014441334 0.04268925 0.021866672 -0.045730345 -0.05399067 -0.005835491
-0.0062151775 0.036682405 0.053632546 0.0027200696 0.05700372 0.050520435 0.021695308 0.04251898
0.054048486 0.034273632 -0.046127915 -0.025224283 0.0153913945 0.014315024 0.061097518 -0.017853022
0.0060709617 0.0038306627 -0.025026308 -0.050851215 0.024531335 -0.028128728 -0.018210426 -0.03268341
0.044136994 -0.011344604 -0.046523526 -0.037533544 0.04696299 0.048710614 0.025165461 0.039845616
0.058207348 0.015162565 0.035196118 0.027351342 0.031103916 -0.027086943 0.005465597 0.04633131
0.03192196 -0.002676092 0.060100272 -0.041282274 -0.059810475 -0.014132388 0.05316841 -0.03385304
-0.027810052 -0.041365005 0.04202622 0.059106603 0.0049511045 -0.0016004592 0.011189662 -0.004355602
-0.06070435 0.062126324 0.022180833 -0.0018168092 0.03219537 -0.019619156 -0.030257327 0.040928848
0.02498281 -0.025395311 0.023139365 -0.03202321 -0.025167245 -0.028751178 -0.015074041 0.026061637
0.00012074411 -0.047755122 0.04840537 0.03766893 -0.011293732 -0.02203232 -0.03500513 -0.03852605
-0.0469494 -0.025361761 0.016127303 0.041153215 0.019684121 0.034913257 -0.005725637 0.0030670613
0.016696632 -0.040799297 0.021330161 0.010178473 0.023951821 -0.022345267 0.032598116 0.006134838
0.03489445 -0.05383706 0.04542195 0.058744706 -0.04831645 -0.04421383 0.04845693 0.0023580918
0.015984103 0.05941654 -0.02146805 0.02974891 -0.009523481 0.028788388 -0.035735853 0.053370543
-0.062092282 0.007637645 0.030767085 0.0042191083 0.0111607835 0.03869603 0.006296478 -0.03359884
0.03675022 0.022722714 0.059532456 0.008559011 -0.025644615 -0.033152945 0.03822516 0.045831583

gru.weight_hh_l0 f4 [768, 256]
00000000: 86e5 25bd b820 fc3c f4d4 54bd dc0a 7ebd
00000010: 7662 203d 3a45 01bd 0072 703a 849f 8dbc
00000020: 00fb 98b9 eca6 c4bc aaac 193d dab1 7d3d
00000030: c068 b3bc ccaa 68bd faee 05bd caf5 0e3d
00000040: b875 4b3c a040 dfbc 00dd 9b3b a2ab 493d
00000050: 6000 7ebd 2023 cebb 2aa6 1cbd 80d9 2fbd
00000060: 7810 69bc 08d1 283c 94e5 d43c c039 5dbc
00000070: 0067 d33c 70b7 d13c 8c58 053d 9c46 e1bc
00000080: e854 72bc 86c3 41bd d8a5 7f3c c057 99bb
00000090: 2034 073c 708a a0bb 10b4 2a3d 1edc 62bd
000000a0: 701a b23c 444c c23c 806d f4ba 80e3 263b
000000b0: 36bf 743d bea9 05bd a207 243d 6438 a13c
000000c0: 2e50 7ebd 1ec4 7ebd 801a d03c 408f dc3c
000000d0: 267c 0a3d 6874 61bd f2b3 32bd 80f5 ac3c
000000e0: 36dc 50bd fe30 4e3d c4c5 083d c013 f3ba
000000f0: 883f 1bbd 5834 1d3c 888c d03c dc56 ce3c
00000100: 6098 51bb 2029 34bd 9895 933c 4c78 903c
00000110: f8b8 603d b461 903c d22e 7cbd f67c 45bd
00000120: 3c72 dabc 54d0 8abc 303a 8ebb 3881 f53c
00000130: d046 bdbb 2880 4c3c 289b 14bc b4e9 26bd
00000140: 60d9 70bd a8a4 cd3c cce8 d73c 52f8 6fbd
00000150: 909b d2bb 2491 81bc f088 133d 0afa 0d3d
00000160: d026 c53c 803f d43a 8a55 65bd b6f3 71bd
00000170: 221a 693d c88b 6b3c 5897 4d3c 54de f1bc
00000180: 9644 7c3d e85c 3bbd 101c 3c3c c0d3 10bd
00000190: 5674 0a3d 58e8 51bd 5ce5 ecbc ca30 0c3d
000001a0: 6eb8 29bd a2a1 513d 28ac 0abc 8e8f 683d
000001b0: 6e00 4bbd a0f9 233c 90ee cf3b ead1 313d
000001c0: 74bf 2abd f87d 7a3c 34a0 563d e058 933c
000001d0: e041 33bb 18ad 0f3c d833 90bc 0098 4238
000001e0: f00e 4e3c 7c31 103d bcb1 65bd 7456 cabc
000001f0: 48bb c4bc 68f2 273c a087 103b 8c8c 9cbc
00000200: 887a 47bc d89b ebbc 9a2a 313d 4e47 7c3d
00000210: c809 943c ecf6 18bd 4c92 fdbc 7071 ef3c
00000220: 0c30 173d 72e9 303d f46f 45bd 8806 993c
00000230: c0cc 423d 6066 483b e033 333c d86b 5cbd
00000240: b267 38bd 7c34 23bd 7458 01bd 6842 68bc
00000250: d857 1f3c 501c 34bd 80cb 363b d635 663d
00000260: b89f 7c3d e473 653d 18d0 3cbc 48e0 1ebc
00000270: 5e27 59bd 10fb b1bb 400e c93b 30f8 6abc
00000280: 80ed c7bb 687e 6a3d 2a78 31bd 48f3 103d
00000290: 7656 293d 4cf3 9c3c f04e a0bc e061 29bc
000002a0: 8e9c 533d 2eb6 51bd 48bd 02bc f8e7 cebc
000002b0: b8bc 153c ee3e 64bd 527c 4dbd 002d 943b
000002c0: 0c6d 993c c029 b1ba a443 0dbd 304b b93c
000002d0: ac2f 46bd c051 a83c 9623 253d 7651 643d
000002e0: e448 80bc 54be 40bd f489 4d3d ec00 1c3d
000002f0: d069 c2bc 6029 5d3c 4ab6 143d f25a 53bd
00000300: 1cb3 0bbd 6852 ce3c 3a62 0abd 4078 543b
00000310: 38e2 38bd 5276 00bd 5857 f03c 78a0 343c
00000320: 5ed8 643d 2ce5 233d c03c 2d3c 2c52 4fbd
00000330: 48d4 273c 40c9 e8ba 2cb2 2cbd fe6b 31bd
00000340: 0c0d 07bd 1c1e 47bd d630 46bd 9e6c 043d
00000350: 1264 6f3d 0259 753d 98c0 f03c 44bb 36bd
00000360: 7022 133c 2edd 5abd 4cf7 a33c 84ce e3bc
00000370: a8cb 0dbd e6b6 043d e0b8 e33b 54be 01bd
00000380: ec11 5bbd 6ad1 65bd 5edf 773d b85d 6bbd
00000390: 0822 13bd bee0 0fbd 6a5b 69bd eccb 283d
000003a0: 423a 10bd f2a5 2bbd f257 103d 28ef 76bd
000003b0: e8e6 573d 548f 5f3d 3c33 a53c 68da cdbc
000003c0: c06c 5f3c e4f2 b03c 887c 5bbd f02c cfbc
000003d0: e8a5 64bc c00d bc3a b0c7 f13c 40fd 45bd
000003e0: 487d 503c c018 5dbb 0809 533c 60bc b9bb
000003f0: 3837 793c 8062 9dbc 8ce2 3cbd 2ec9 533d
-0.040502094 0.03077732 -0.0519609 -0.062022075 0.0391564 -0.03156016 0.0009172261 -0.017287977
-0.0002917871 -0.024005376 0.03751818 0.06193719 -0.021900535 -0.05680351 -0.03269861 0.03490237
0.012418203 -0.027252495 0.00475657 0.049235947 -0.062012076 -0.0062908083 -0.038244404 -0.042932034
-0.014225118 0.010303743 0.025988378 -0.013502538 0.02580595 0.025600165 0.032555148 -0.02749949
-0.014790751 -0.047305606 0.015603505 -0.00467965 0.008252174 -0.0048993155 0.041675627 -0.0553857
0.021741122 0.023718007 -0.0018648356 0.002546519 0.059752665 -0.032632582 0.04004634 0.01968021
-0.062088184 -0.06219875 0.025403261 0.026923776 0.033809803 -0.055042654 -0.04362864 0.021113157
-0.05099126 0.05033969 0.03339173 -0.0018545315 -0.037902385 0.009594999 0.025457636 0.025187902
-0.0031981692 -0.043984532 0.018015668 0.017635487 0.0548639 0.017624713 -0.06156809 -0.048214875
-0.0266658 -0.016945042 -0.0043404326 0.029968843 -0.005776264 0.012481727 -0.009070195 -0.04075022
-0.058801055 0.025102928 0.026356123 -0.058586426 -0.006427236 -0.015816279 0.036019266 0.034662284
0.024066359 0.0016193241 -0.05598978 -0.05907031 0.056909688 0.014376588 0.01254829 -0.02952496
0.061588846 -0.0457429 0.0114813 -0.03535819 0.033802353 -0.05124697 -0.02891796 0.034226216
-0.04143565 0.051179536 -0.008463897 0.05677753 -0.049560957 0.010008246 0.0063455775 0.04341308
-0.04168649 0.015288822 0.052398875 0.017986715 -0.0027352497 0.008769296 -0.017602846 4.6394765e-05
0.012576804 0.035203442 -0.056077704 -0.024699427 -0.024015084 0.010250665 0.0022053495 -0.019109987
-0.01217521 -0.028760836 0.04325352 0.06159144 0.01807107 -0.037344858 -0.030953549 0.029228896
0.036911055 0.04319138 -0.04820247 0.018679872 0.047558546 0.0030578598 0.010937661 -0.053813785
-0.045020767 -0.039844975 -0.031578496 -0.014175989 0.009725533 -0.043972313 0.0027892292 0.056203686
0.061675757 0.056018725 -0.011524223 -0.0096970275 -0.05301606 -0.0054315403 0.006135732 -0.014341399
-0.0061013103 0.057249457 -0.043327488 0.03538826 0.04134222 0.019158982 -0.01956889 -0.010338277
0.051662974 -0.05119913 -0.0079796985 -0.025257096 0.009139232 -0.055724077 -0.05016739 0.004521966
0.018728755 -0.0013516471 -0.034488335 0.02261886 -0.048385307 0.020546794 0.04031714 0.05574175
-0.015659757 -0.04705651 0.05018039 0.038086817 -0.023732096 0.013498634 0.036306657 -0.051600404
-0.03410636 0.025185779 -0.033785082 0.0032420307 -0.045137614 -0.03136284 0.029338524 0.011024587
0.055870406 0.040013477 0.010573566 -0.050615475 0.010243483 -0.0017760172 -0.042162105 -0.04331588
-0.032971427 -0.0486127 -0.048386417 0.032330148 0.058445044 0.059899338 0.02938871 -0.044612184
0.0089803785 -0.05343359 0.020015381 -0.027808435 -0.03461805 0.032400988 0.006949529 -0.03167565
-0.05348389 -0.056107916 0.060515754 -0.057462424 -0.035921127 -0.03512644 -0.056971945 0.0412101
-0.03521181 -0.041906305 0.03524012 -0.06028667 0.052710444 0.054580048 0.020166032 -0.025128558
0.013636768 0.021600194 -0.05358556 -0.025289983 -0.013955571 0.001434736 0.029514164 -0.04833722
0.012725182 -0.0033736676 0.012880571 -0.005668208 0.015210919 -0.019212008 -0.04611449 0.05170553

gru.bias_ih_l0 f4 [768]
00000000: e0f0 a8bb 6c87 4e3d e954 b7bc d711 293d
00000010: 4004 2cbb 9832 d2bc ee62 0cbd 18d1 29bc
00000020: e0d5 253b 28fe b6bc 7724 373d bc0a 9abc
00000030: 860d 1b3c 945c c53c 80d0 683c 0c32 cc3c
00000040: a880 af3c 60c6 a3bb 9cf0 c53c 949d 51bd
00000050: 2465 d3bc 8ce9 733d e6c8 283d 889b b33c
00000060: 8a14 553d 193d 12bd 48ed 13bd 54dc 8abc
00000070: 8040 58bd b8bb 26bc 26af 57bd c477 513d
00000080: b831 043c 00a6 673d 00ae bfbb 9689 133d
00000090: d02b 02bc ce51 1a3d b09a a6bb a0e4 4f3b
000000a0: 6e80 0abd b40f e83c e276 5b3d c226 533d
000000b0: 7859 41bc e0f1 563d 54eb 86bc 6edd 1a3d
000000c0: 7251 65bd 2dab a13c becd 1b3d 2271 553d
000000d0: d4cf 4fbd 38ea 17bd 7cef 71bb 44fe 093d
000000e0: 42a4 73bd ba54 f63c 00e9 743d 18ab c03c
000000f0: 0be2 853d be34 2abd d8d1 6fbc 806e e8bc
00000100: 067d 723d 8c49 75bd c83e f33c 6cca dcbc
00000110: 329c 39bd 9476 fabc 70b9 443d 1ef0 56bd
00000120: caef 4cbd 5c45 4e3d c67a 613d 08b1 73bd
00000130: 807a 4dbc ea42 bfbc 19a5 653d 43bf bcbc
00000140: 1072 52bd d705 123d 248b 98bc fc03 443d
00000150: dcfa 693d 813e 68bd 80f0 63bc ac82 793d
00000160: 308d 063c 00f2 28b9 1a97 123d 61f5 24ba
00000170: e6d7 49bc d013 3abd 9008 953b f430 d63b
00000180: 1cee 493d 2c3e b93c 4cc9 c33c a4ab afbc
00000190: f874 f7bc 2095 c13b 38a8 14bd c0bd e83b
000001a0: 087c e6bc 3059 f63c 8857 40bc 2c08 983c
000001b0: 88c9 f93c e840 55bd 383a 6c3c a00a 413d
000001c0: a0c1 9c3c e025 a5bb f8fb 5e3d d48b 313d
000001d0: 7cf1 60bd 2032 fcbb 9e27 7d3c 6419 a4bc
000001e0: 388d 043d 4014 c9ba e0e0 633b 3f28 743d
000001f0: d87a e0bc 0adc 1abd 5046 fa3c e0bc bf3c
00000200: 905b 223d 80a8 7dbd 58e9 fb3c 8552 4fbc
00000210: 32a8 67bd a58f 623b 282c 6b3c b01d efbc
00000220: 9281 7fbd 9ee8 6e3d 6ff5 67bd 2223 5fbd
00000230: 2a4d 103d 40b5 e3ba 38b6 79bc 2ac4 a73c
00000240: cac3 28bd 1f5c 3a3d d4e3 b83c b96d 8a3d
00000250: 3a7a 3e3d 50dd 1bbd b031 c3bb f8a6 0dbd
00000260: e03c 913c 701a f73b ba3b 3e3d 2857 6d3c
00000270: 482e 863c 7a37 023d e09e 8fbb 1c1a ddbc
00000280: 9066 f8bc ece4 e73c 8cdb 1ebc f011 25bd
00000290: 062a 573d 7cda 4f3d 003c 47ba 1e8e 03bd
000002a0: f4f6 33bd 22a3 05bd 0036 0fbd 5da3 163d
000002b0: c090 ccba d0cd 693d 2803 4d3c 18fb b83c
000002c0: 94d1 91bc 80d9 b9bb 8c52 2e3d 0c33 8e3c
000002d0: 3d05 4b3c 0bb9 adba c054 213b 30ec e43c
000002e0: 6a12 9e3b f416 323d a4a0 973c b829 583c
000002f0: 40a7 70bc 3811 243c c4ad 60bd 588e 54bd
00000300: 3607 2d3c e418 563d a045 57bd 00f3 1cbb
00000310: dccd a63c 48be 1dbc b0c1 d53c 7823 74bd
00000320: 1879 a13c ccd5 38bc cf81 1c3d d83a f9bc
00000330: 402c 8aba a10a 56bd 08a3 2abd 5662 4fbd
00000340: 6863 de3c 1e51 023d f292 21bd a42e 3bbb
00000350: d570 733d f2dd 6dbd f83f 18bc 92e9 f6bb
00000360: 38ad b0bc 80de 733d 1dae 0f3d 969c 8ebd
00000370: 7ef9 31bd a40e c53c 54d4 973d 0080 df39
00000380: a04b 9abd 1091 0f3c 809f 7f3c 199b ab3c
00000390: 162e 6cbd c396 e73c 14eb 67bd be69 49bd
000003a0: 8437 a0bc 11ba a73b ac9d c3bc 08ef 303d
000003b0: 2eb7 6c3d f8ff 473d e9f1 853c a823 333d
000003c0: b000 bebc 407d 853c 903d 763d 394b 6abd
000003d0: 748f f23c 7a63 19bd c197 2c3d a4a2 58bd
000003e0: 162e 64bd d059 503c 3819 913c 3e8d f6bc
000003f0: 78fb 97bc b4d0 3bbd 8039 6dba 93d3 bebc
-0.0051556677 0.050422117 -0.022379356 0.04127678 -0.002624765 -0.02565889 -0.034274034 -0.010364793
0.0025304481 -0.022337988 0.04471251 -0.018803947 0.009463673 0.024091996 0.0142098665 0.024926208
0.021423653 -0.0049980134 0.024162583 -0.05117567 -0.025805064 0.0595489 0.041207217 0.021924749
0.05202154 -0.0357028 -0.03611496 -0.016950764 -0.052795887 -0.010176592 -0.05265727 0.051139608
0.0080684945 0.056554794 -0.0058496 0.036019884 -0.007945016 0.03767567 -0.005084358 0.0031721964
-0.033813886 0.0283278 0.053580172 0.051550634 -0.011801116 0.052476764 -0.016469635 0.037808828
-0.055985875 0.019734943 0.038038008 0.052109845 -0.05073531 -0.037088603 -0.0036916425 0.033689752
-0.05948282 0.030069698 0.05979252 0.023519084 0.06537255 -0.041554205 -0.014637433 -0.028373003
0.059201263 -0.059884593 0.029693022 -0.026951991 -0.045314975 -0.03057412 0.04802841 -0.052475087
-0.05003337 0.050359115 0.055048726 -0.059495002 -0.012541413 -0.023347337 0.056065653 -0.02304042
-0.05137831 0.0356501 -0.018621035 0.047855362 0.057124004 -0.056700233 -0.01391232 0.060915634
0.008212373 -0.0001611188 0.035788633 -0.0006292668 -0.012319541 -0.04542905 0.00454814 0.0065365974
0.049299344 0.022612654 0.023899697 -0.02144415 -0.030207142 0.0059076697 -0.03629324 0.007102698
-0.028135315 0.030071825 -0.011739619 0.018558584 0.030491605 -0.052063853 0.014418177 0.047129273
0.019135296 -0.0050399154 0.054439515 0.04334624 -0.054917797 -0.007696405 0.01545134 -0.020031638
0.03236124 -0.0015341118 0.0034771487 0.059608694 -0.027402326 -0.0378075 0.030551106 0.023405492
0.039638102 -0.061928272 0.030750915 -0.0126539515 -0.056556888 0.0034570482 0.014353789 -0.02918896
-0.062379427 0.05832731 -0.056630548 -0.054476865 0.03522984 -0.0017372742 -0.015241198 0.02047928
-0.041202344 0.04549801 0.022569574 0.06759209 0.046503283 -0.038052857 -0.005956851 -0.034583062
0.017729223 0.0075409934 0.04644368 0.014486112 0.01637949 0.031791188 -0.004382953 -0.026989989
-0.030322343 0.0283074 -0.009695899 -0.04030031 0.05253031 0.050745472 -0.0007600188 -0.032117955
-0.043936685 -0.03262628 -0.034963608 0.03677689 -0.0015607104 0.057081044 0.01251296 0.022580668
-0.01780013 -0.00567168 0.04255919 0.017358325 0.012391386 -0.0013254 0.0024617165 0.027944654
0.0048239725 0.04347892 0.018509217 0.01319354 -0.014688313 0.010013871 -0.054853216 -0.051893562
0.010560801 0.05226983 -0.052556634 -0.002394855 0.020361833 -0.009627886 0.026093334 -0.059604138
0.019711062 -0.011281442 0.038209733 -0.030423567 -0.0010541752 -0.05225623 -0.041659385 -0.05063089
0.02714701 0.03181564 -0.03944678 -0.0028561736 0.059433777 -0.05807299 -0.009292595 -0.007535168
-0.021566972 0.059538364 0.035078157 -0.0696346 -0.043450825 0.024054833 0.07413545 0.00042629242
-0.075339556 0.008762613 0.015601993 0.02094798 -0.05766114 0.028270131 -0.056620672 -0.04917311
-0.019557722 0.0051186164 -0.023878895 0.043196708 0.05779188 0.048828095 0.016350703 0.043735176
-0.023193687 0.016295075 0.060117304 -0.057200644 0.02960942 -0.037448384 0.04213691 -0.05288948
-0.055708013 0.0127167255 0.01771222 -0.030096646 -0.018552527 -0.04585333 -0.00090494007 -0.023294246

gru.bias_hh_l0 f4 [768]
00000000: f80d a73c 38f5 503c 3522 bbbc 7f26 0bbd
00000010: a00f a0bc 9014 113d 023f 1ebd ecf1 0d3d
00000020: ccd8 1fbd d820 5cbc cd91 563d c036 733d
00000030: b8b2 323d 54a1 943c f046 fa3b c0ae a2ba
00000040: 005d c7bb a8b1 babc 127d 29bd 4845 86bc
00000050: 203a a9bc 548d 89bc 38d2 b13c f6c5 3e3d
00000060: 30d4 27bd f1e1 22bd 4338 cc3c 96d6 7bbd
00000070: b07c 063c 76ad 17bd a6d8 3cbd 6882 903c
00000080: e2ad 0e3d f4de 5fbd 7c5a 2f3d c89f 053d
00000090: 96c2 2ebd b6a4 62bd 0062 b439 c4a0 67bd
000000a0: a0cf 6bbd b40c 79bd 00a4 f23b a078 6d3c
000000b0: 6c17 ac3c ec7d df3c 7c96 2c3d 5007 093d
000000c0: 06ed 0f3d 4947 ef3c 209f 913c b0ea 093c
000000d0: 161c 17bd 7cf6 5cbd 10d3 af3c 426f 003d
000000e0: 44a7 df3c e1c5 63bd e481 fbbc 48e3 8e3c
000000f0: 65b2 943c 5822 c33c c228 0d3d b2af 193d
00000100: 3e53 5a3d bc1a 1f3d 925b 143d c095 93bc
00000110: 5036 a9bc c672 293d 5ea7 403d 8c8e bbbc
00000120: e0b0 543c f211 6d3d 2229 663d 422c 73bd
00000130: e05b 0f3d 6037 4f3c 905a 2f3d 5865 05bd
00000140: 2045 ddbc b93c 093b 509e eabb 18ab 04bc
00000150: 0c19 c7bc facb 9e3c f0a7 a1bc 7c50 44bd
00000160: 20da 42bd 2ad9 43bd 804e 7f3a 45dc ad3d
00000170: 2666 2cbc 2e80 31bd 00d9 e339 14d6 70bd
00000180: ba95 2a3d 186b 003d ee01 173d 7077 8b3b
00000190: 2098 273d bc05 bdbc b815 193c ae5b 303d
000001a0: 862f 593d 9229 68bd 6c26 173d 0cdc 7bbd
000001b0: ab64 873d 90e8 c9bb b4d5 b43c 626a 29bd
000001c0: 8692 77bd 7c2f 60bd 1e92 713d 16e2 bc3c
000001d0: 124f 00bd 281d 7c3c a9fa 1bbc f279 383d
000001e0: fcd8 51bd 22df 0ebd 44c4 893c 689b 3e3c
000001f0: 10cc 073d 8ee9 28bd 3c9f 3e3d cc95 18bd
00000200: 3805 28bc ca62 5b3d 9221 723d 6527 e5bc
00000210: 8c4f 2cbd b3ee 853c 3670 5fbd 1622 2b3d
00000220: 06e3 353d ee93 163c 6170 39bd f8dc 28bd
00000230: 4ad5 7fbd 3a42 4bbd bc93 bdbc 08d4 05bd
00000240: 9885 20bd ff91 013d eeae 543d 6bdc 70bc
00000250: f0b0 1d3d e4af 1bbd 781c afbc 70de 3e3d
00000260: 7cca 773d 7048 bfbc c8b2 4a3d e00a 513d
00000270: dc94 b03c 0e0c 2d3d 60be 773b 7e29 143d
00000280: e0cb 593d 505c 4c3c 9da1 563d d404 e9bc
00000290: 309e 503c 3274 453d 1e91 2dbd 0869 d5bc
000002a0: 9afd 2f3d 1404 e73c 40c9 ed3b 8b15 e13b
000002b0: f045 573d 3cab b7bc c052 793d 02ac 643d
000002c0: c4e7 afbc f032 213d 5095 fcbc ecb8 c2bc
000002d0: 216b b2bc 185d 273d 7001 04bd 741b 693d
000002e0: 6d9e fb39 ecc6 64bd e8c7 563c f4d2 ec3c
000002f0: a64d 3abd 60f8 debc c040 46bb dc38 3c3d
00000300: b6b4 24bd c6b5 2c3d e6cc 213d 48f6 5ebd
00000310: 4093 133c dc08 d4bc 46b0 3b3d 28c6 0fbc
00000320: 1058 ec3b 88b9 6a3b 5d06 79bc 9731 73bd
00000330: 58ac 553c 9980 c1bc 88dc 5dbc baae 2d3d
00000340: 1403 4cbd 24a0 173d 84df 59bd 303f 49bd
00000350: d9f3 6e3d d817 5e3d fada 7dbd 2eb0 55bd
00000360: e051 463d 84d3 aabc 8c17 17bb c9df 04bd
00000370: 7c1b 673d 6077 1f3d baf0 c33d aa8e 463d
00000380: 9df0 4cbd 8ecb 25bd b4d5 9e3c 55a8 df3c
00000390: 7a4f 5cbd 6a5b 253d 5cc8 5d3d 8236 0ebd
000003a0: cc65 0b3d fc64 d2ba dccb c53c aa2c 1f3d
000003b0: 28b3 853c d4a0 50bd f737 f5bc 402b be3b
000003c0: d481 b2bc dc8d 4d3d c82d 4cbc 7b40 47bd
000003d0: 1c9c 953c 2212 4f3d 1fa0 65bd 8802 29bd
000003e0: 1e5e 543d b059 07bd 20f0 4c3d 9bb9 853d
000003f0: 5876 0f3d e6f9 77bd a8e1 ac3c f8c8 a53c
0.020392403 0.012753777 -0.02284346 -0.03397226 -0.0195387 0.03542 -0.038634308 0.034654543
-0.039025113 -0.013435565 0.05238514 0.059378386 0.04362747 0.018143333 0.007637851 -0.0012411699
-0.0060840845 -0.022789791 -0.041379042 -0.016390458 -0.020657599 -0.016791023 0.021706685 0.04657551
-0.040973842 -0.039766256 0.024929171 -0.061483942 0.008208439 -0.03703066 -0.04610505 0.017640308
0.034833796 -0.054655984 0.042810902 0.032623082 -0.04266604 -0.05533286 0.0003440529 -0.056549802
-0.057571054 -0.06080313 0.007404804 0.014494091 0.021007262 0.027281724 0.0421357 0.03345424
0.035138153 0.029208796 0.017776072 0.00841777 -0.03689202 -0.053946003 0.021462947 0.031356104
0.027301438 -0.055608634 -0.030701585 0.01744236 0.018151471 0.023820087 0.034462698 0.03752107
0.053302042 0.038843855 0.03622014 -0.018015742 -0.020655781 0.041369222 0.047034614 -0.02289512
0.012981623 0.057878442 0.05619157 -0.05936838 0.03499973 0.01264748 0.042810977 -0.032567352
-0.0270105 0.0020940735 -0.0071599856 -0.008097433 -0.024303935 0.019384373 -0.0197334 -0.04792832
-0.0475713 -0.047814526 0.00097391754 0.08489279 -0.010522401 -0.043335132 0.00043458492 -0.05879791
0.041646697 0.031352133 0.036867075 0.0042561814 0.040916562 -0.023074023 0.009343557 0.043056183
0.053023838 -0.05668027 0.036901876 -0.06148915 0.06610998 -0.006161757 0.022074558 -0.04136122
-0.06044247 -0.054732785 0.05897724 0.023057025 -0.031325407 0.015387811 -0.009520211 0.04503817
-0.051232323 -0.034880765 0.01681722 0.011633731 0.033153594 -0.04123836 0.046538576 -0.037252232
-0.0102551505 0.05356101 0.059114046 -0.027972886 -0.04206805 0.016349172 -0.054550372 0.041780554
0.04440596 0.009190543 -0.04527319 -0.041226357 -0.062459268 -0.049623705 -0.023141734 -0.032672912
-0.039189905 0.031633373 0.05192464 -0.014700989 0.03849882 -0.03800954 -0.02137588 0.04659885
0.06049584 -0.02334997 0.049486905 0.05103576 0.021555357 0.042247824 0.0037802681 0.036172383
0.053172946 0.012473181 0.05240022 -0.028444685 0.012733027 0.048206516 -0.042374723 -0.02605106
0.042966463 0.028200187 0.007256657 0.006869023 0.052556932 -0.022420518 0.060869932 0.055828102
-0.02147282 0.03935522 -0.030832916 -0.023769818 -0.021779599 0.040860265 -0.032227933 0.056910947
0.00047992487 -0.05585377 0.013109185 0.028909184 -0.045484208 -0.027218044 -0.0030250996 0.045952663
-0.040211402 0.04216554 0.039502047 -0.05443409 0.009007275 -0.02588313 0.045822404 -0.0087752715
0.0072126463 0.0035816152 -0.015199271 -0.059373464 0.013041578 -0.02362089 -0.013541348 0.04240296
-0.049807623 0.037017956 -0.053191677 -0.049132526 0.05833802 0.054221958 -0.06197641 -0.05216997
0.048417926 -0.020852812 -0.0023054807 -0.03243998 0.056422696 0.038932204 0.09567399 0.0484759
-0.050034154 -0.040477328 0.019389011 0.027301947 -0.053786732 0.040370382 0.054146156 -0.03471995
0.034032628 -0.0016051824 0.02414506 0.038860954 0.01632078 -0.050934628 -0.029933913 0.0058034956
-0.021790422 0.050184116 -0.012462087 -0.048645478 0.018262915 0.050554402 -0.056060906 -0.04126218
0.05184757 -0.033044517 0.05003369 0.06529542 0.03502497 -0.060541056 0.021103695 0.02023743

linear.weight f4 [1, 256]
00000000: 29fa f4bc ca06 fabb 335b a3bd c9c2 e5bd
00000010: 797e 0d3d 705e 843d 5416 4bbd 050f 743d
00000020: 9f88 12bd 147d 903c 0768 b13b d9e0 2ebd
00000030: df50 68bd 501d 6f3d 876f 1a3d 9c53 45bd
00000040: 1aac 7f3d 2136 973a 8a59 5abd bea8 873d
00000050: b14d 003d 4ebb 1ebd 9af8 69bd ad53 8a3a
00000060: a327 743d 40dd 013d 0882 bc3d 4075 6f3b
00000070: 481b 953d ced8 063e ad56 02be 361b 5a3d
00000080: b014 bf3c 9235 6a3d ee5a 733d f1fc 51bc
00000090: 9ead a2bd e212 5bbd fc8d aa3d c552 d7bb
000000a0: 05dc 13bd 8081 063c eef4 d53b fd18 193d
000000b0: e526 51bd 5b6a 583d eca9 3d3d 218c cf3c
000000c0: 53f6 243d 77d9 b1bd ff12 1d3d b27c 493b
000000d0: b6a0 77bd 0127 d2bd 41cf acbd 5a21 453b
000000e0: 409c 7f3d 3db6 573d 0bd9 8dbd 5bd7 28bd
000000f0: e3e0 dcbd a045 9cbb 42a1 95bd 4403 ce3c
00000100: b5ff 1cbd d207 64bd ecd6 9bbc 4a02 273d
00000110: c994 403d c755 cc3b 9098 e43c a7e4 35bd
00000120: 8f76 84bd 96fa 6d3c 6243 1d3d 2998 c4bc
00000130: 179a 83bc 8d28 93bd 04c0 a3bd d483 43bc
00000140: 73ca 35bd cf43 8fbd c6fa 9bbd 3feb dabd
00000150: 6e31 b03d 635a 9b3d 9f0f 093d 7363 6abc
00000160: 273d 0d3d 1758 f8bc 3634 0d3d af5e ac3d
00000170: 9ffc 903d f461 923c 38f9 81bd 9ef1 cc3d
00000180: 38f7 6ebd ff55 6fbd ee11 a7bd d139 1d3c
00000190: b3e1 dabd e0a7 1d3b 1986 cdbd 1380 cebd
000001a0: c331 72bd 2b59 503d 0480 96bd b51b 01bd
000001b0: 2732 7f3d 5843 c9bc b070 eebc 484a 3c3c
000001c0: 316b 323d 0cb2 2cbd a337 9fbc a1ea 9cbd
000001d0: feb9 35bd c192 dc3d 4fe5 5fbd 8d18 a03c
000001e0: 22f7 5f3d 1447 7bbd a4e2 d6bc abf1 323d
000001f0: 18b4 9bbd d6e5 3c3d 9026 86bd 981a 363c
00000200: bc25 17be f11b ae3b 8a0e d3bd 4ace b6bd
00000210: 62af a93c 64b0 c33d 04a3 7abd b438 0f3c
00000220: 9b67 4a3d 1e42 f9bd 811d e33d 441a 4ebd
00000230: 113d c63b 0636 22bd d0b8 a73c 956d a53c
00000240: b869 e8bd c1b5 43bd 3e1b 8f3d a46d dc3d
00000250: 5097 09be b435 15bd 2777 5b3d 326e 383d
00000260: 15c9 093d eb6e 583c 36d6 bebd b029 b13d
00000270: 54bc b9bc 5ec7 20bd f5b9 c1bc 7b46 353d
00000280: cb3f c9bd 6b99 96bd b09f d23b a197 5dbd
00000290: f71b 4fbd eb4e 73bd ffc2 2a3b 68fd 5a3c
000002a0: 92af b03c fdcf 883b d841 813d 3b34 40bd
000002b0: 4cbd ba3c 619c f5bc 5d3a a1bd d0aa 083d
000002c0: c09f 2b3b f061 9c3d 9c9e b9bd 35db e93d
000002d0: 32d0 0d3d 85f1 20be f280 673d 95a2 18bd
000002e0: 7215 f63b 834c d5bd 9c2d dbbb ef6f dd3d
000002f0: 3f4f 2b3c e00b b33c 9462 723c 31fd 82bc
00000300: 83bd b73c 42eb 47bb df1a 92bc ed9b 233d
00000310: f7f4 d73d c009 25bd c6a3 bebd 4571 4c3d
00000320: 3db0 66bd bc94 ebbd 5393 193e 858e 7fbd
00000330: 1855 523d 2737 c4bd c39c 86bd 732b bf3d
00000340: a03e cfbc ee9e a03b bd2d 50bb d04e 2fb9
00000350: 9ee2 9cbc ac59 963c 44a5 3cbc b949 e83d
00000360: 2fd8 323d 16ca 443d 850d 19bd 653d 2ebd
00000370: 5331 4fbd adda 633d 0250 693d 07cf 823d
00000380: f868 a23d d135 d8bd 4ba4 3b3d 2aff 593d
00000390: aa52 38bd 2ba4 8fbc 449d 973b f6a6 6b3d
000003a0: fed1 a43c 8477 adbd ebf9 193b eb93 26bd
000003b0: f782 6fbd 9257 0e3d 34a3 29bd 408e 91bd
000003c0: 8548 c0bd b2ec 41bb e245 18bd d6ac b8bc
000003d0: 4d23 bdbc a93a 253d 9a52 babc f7bc c3bd
000003e0: 8e5f 2f3d 1f8a 653d e58e c43d 7ecb 913d
000003f0: af76 2cbd a811 503d d5cd 8c3d 785e e73c
-0.029904442 -0.007630204 -0.07976379 -0.11218793 0.03454444 0.06463325 -0.04958184 0.059584636
-0.035774823 0.017637767 0.0054140124 -0.0426949 -0.05671775 0.058377564 0.037704017 -0.04817544
0.06241999 0.0011536517 -0.053308047 0.06623982 0.031324092 -0.038752846 -0.05712185 0.0010553502
0.059608113 0.03170514 0.09204489 0.0036538392 0.07280594 0.13168642 -0.12728377 0.053248607
0.023325294 0.057179995 0.05941289 -0.012816654 -0.07943271 -0.053484805 0.083278626 -0.006571146
-0.0360985 0.008209586 0.006529442 0.037377346 -0.051062483 0.052835803 0.04630463 0.025335373
0.040273976 -0.08684056 0.038348194 0.003074449 -0.060456 -0.10261346 -0.08437968 0.0030079694
0.06240487 0.05266403 -0.06926163 -0.041221004 -0.10785081 -0.004769042 -0.07306148 0.025148042
-0.0383298 -0.05567152 -0.019023381 0.040773667 0.047016893 0.0062358114 0.027904779 -0.044407513
-0.06467926 0.014525076 0.03839434 -0.023998337 -0.016064687 -0.07185469 -0.079956084 -0.011933286
-0.044382524 -0.06995355 -0.076161906 -0.10689401 0.08603178 0.07585599 0.033462163 -0.014305937
0.034482148 -0.030315442 0.03447362 0.08416497 0.07079434 0.017868973 -0.06346363 0.10007022
-0.058341235 -0.05843162 -0.08157717 0.009596304 -0.1068758 0.002405636 -0.10035343 -0.10083022
-0.059129488 0.050866287 -0.07348636 -0.031520564 0.06230369 -0.024568245 -0.029106468 0.011492319
0.043559257 -0.042161986 -0.01943571 -0.076619394 -0.04436683 0.107701786 -0.054662045 0.019542957
0.054679044 -0.061347082 -0.026231118 0.043687504 -0.076027095 0.046117626 -0.06550324 0.011114739
-0.14760488 0.0053133895 -0.103055075 -0.08926065 0.020713512 0.09555128 -0.06119062 0.008741546
0.049415212 -0.12170814 0.11089612 -0.050318018 0.00604976 -0.039602302 0.020473868 0.020193854
-0.11348289 -0.047780756 0.06987618 0.107631 -0.13436627 -0.03642817 0.05358043 0.045026965
0.033639032 0.013210039 -0.09318201 0.086505294 -0.02267281 -0.03925263 -0.023648242 0.04425667
-0.09826621 -0.07353481 0.0064277276 -0.054099683 -0.05056378 -0.059401434 0.0026056168 0.013366081
0.021568093 0.0041751848 0.06311387 -0.04692481 0.022795342 -0.029981794 -0.0787246 0.033366024
0.0026187748 0.076358676 -0.090634555 0.114187635 0.03462238 -0.15717132 0.056519456 -0.037264425
0.0075098807 -0.10414984 -0.0066887867 0.10812365 0.010455905 0.021856248 0.014794011 -0.015989872
0.022429233 -0.0030505215 -0.017835079 0.039943624 0.1054477 -0.0402925 -0.09308581 0.04991271
-0.056320418 -0.11502978 0.14997606 -0.062391777 0.051350683 -0.09580832 -0.06572869 0.09334459
-0.025298417 0.0049017584 -0.0031765543 -0.0001671866 -0.019151028 0.018353306 -0.011514012 0.113421865
0.0436632 0.048044287 -0.03736641 -0.04253902 -0.05058415 0.055628467 0.056961067 0.063871436
0.079301775 -0.1055714 0.04581098 0.05322186 -0.04500071 -0.017534336 0.004626902 0.057532273
0.020119663 -0.084700614 0.002349491 -0.04066841 -0.058474507 0.034751482 -0.04141541 -0.0710721
-0.09388832 -0.0029590544 -0.03717602 -0.022543352 -0.023088122 0.040339146 -0.022744466 -0.095575266
0.042815737 0.056039926 0.095975675 0.07118891 -0.042105373 0.05079809 0.06875197 0.028243288
