GRU_PIE.pth (torch, 808597 bytes, 5 tensors)

gru.weight_ih_l0 f4 [768, 4]
00000000: e8f0 313d 14e9 353d e0e2 86bb d0b1 97bc
00000010: b4d3 34bd 4e85 053d 8647 69bd b61d 78bd
00000020: 3448 64bd 56c9 5e3d 158d 053c 9cdd 2e3c
00000030: 5897 9dbc 8818 c5bc ea4a 32bd c084 53bd
00000040: a83c 68bc 4039 163d 4ef8 0fbd 10d9 64bd
00000050: e86c d73c 2824 033d a4d9 323d 0825 643c
00000060: f051 603d 00fc eb39 fa0c 003d 3e4b 423d
00000070: 7419 0ebd 6057 633c c063 5f3d 04b8 28bd
00000080: fc19 1d3c 0c3f f5bc a4ae f6bb 070f 473d
00000090: 683f 583c 80a4 eb3a 72a8 72bd 38f3 3bbd
000000a0: 4085 a0bb 6877 d4bc d07b 68bd 407a 7fbc
000000b0: 87b2 113c 64b4 2e3d 60f8 423d 8c94 61bd
000000c0: e0b3 ccbb 8060 bebc 5a3f 7f3d 283a 27bd
000000d0: fa68 22bd 2610 4a3d 0090 7b3b d4d3 2abd
000000e0: 5031 e3bb b858 22bc 6898 4d3c b0e6 a6bb
000000f0: 4057 6fbd aa1f 3c3d 90ac abbc 4820 3bbd
00000100: 40ae e73a b062 d5bc c8ed 233d d01a efbb
00000110: c0fb 4dbd 9860 e0bc 18e8 613c b05b 6e3d
00000120: 5ca0 0a3d 7677 01bd 5805 77bc 928d 79bd
00000130: aa6d 3dbd 00a0 a2bc 5abb 753d 3806 103c
00000140: 9ce4 3fbd 6210 713d ac16 6d3d b473 c83c
00000150: ecf4 ef3c 74df 8f3c 9617 103d 800d 8dbb
00000160: b02d b9bc 5072 5abd 001c d33a 900e c7bc
00000170: 1ad5 6d3d f064 8b3b 8a37 5cbd 7034 27bd
00000180: 7c7d a4bc ae9f 24bd a8c5 10bc c4e0 58bd
00000190: c856 e2bc eebc 64bd cab4 603d b45a 883c
000001a0: d0d0 c63c c4d9 15bd 246f 11bd 6007 fa3b
000001b0: 0281 0e3d e489 dabc 0054 7b3c 4cdd 3a3d
000001c0: a97c a43c 28c1 9a3a 3493 27bd 06aa dabb
000001d0: 9411 543d 2481 0b3d 00de 1b39 ec75 c33c
000001e0: 6e59 d8bc 8585 36bd 8e0c 733d 99c5 353c
000001f0: 8a33 0b3d 48d3 81bc 16f7 4e3d 20a4 363d
00000200: b6c2 6b3d fabd 34bd 00fa 28bc bc15 6bbd
00000210: 784d 333c 6002 0b3d 501c 1f3d 8492 a13c
00000220: f410 dd3c cc33 efbc 005e 843a 2480 2abd
00000230: 380c 72bd 6623 50bd 2062 463d e863 7b3d
00000240: 6281 37bd 447e 933c bec0 403d 1a4f 7dbd
00000250: 5a6c 0bbd a8b5 51bc 523a 60bd 2240 1bbd
00000260: 4c9f 2bbd 941b d0bc 64a9 b73c ac4d babc
00000270: 31e4 293d 0ce6 91bb dc0f c93c a074 fbbc
00000280: b02a 46bd b548 7d3d f35e bcbc 4af0 8fbb
00000290: 5021 633d 684c 123d 62f6 0e3d f098 46bd
000002a0: 9558 373d f3e2 42bd 5f28 ecbc c859 0d3b
000002b0: 082a 353d ac40 82bc d098 c73c 1e0e 4f3d
000002c0: 8e94 25bd dc21 7e3d 08ce 773c 0202 553d
000002d0: 0206 5f3d e616 6abd c0f8 50bb 3023 fdbc
000002e0: 30cf bf3b 80dd 463a 18b8 e6bc bc3d af3c
000002f0: ea4c 79bd 8026 c93b 483e ed3c b8dc a3bc
00000300: 001a a9bb c6e0 573d 7819 343d 42f4 0bbd
00000310: 1e12 393d cad8 7c3d 0005 9539 1c4e c5bc
00000320: 600c 29bc d8f1 2ebd 9456 cc3c a02b 4dbd
00000330: 5bda 0c3d c096 203d d1b6 40bd 95bf 413c
00000340: 60c8 083c 4011 f0bb 00f4 c0bb 6061 2f3b
00000350: 005f 473c 26c9 77bd 5c73 cfbc ac12 9bbc
00000360: 1abb 3fbd b46f 3b3d 5e68 6c3d 5e02 133d
00000370: c281 b4bb 90d5 d83c bbba d5bc 847b 0d3d
00000380: 30a1 82bc 9610 723d 588e c93c eed3 393d
00000390: ae99 74bd f88a 793d b09f 743d 4efc 1e3d
000003a0: 7ce4 963c 822d 593d 0035 3bba e05c 4bbd
000003b0: 60b1 9a3c a3bd f7bc 9dca b3bc 3861 523d
000003c0: 00a8 2fbb f070 bdbb 0074 103d 64af aebc
000003d0: 281a d13c e0dc 30bc b485 5b3d f4b6 48bd
000003e0: 1443 d33c f6cf 1cbd 94fb 18bd a0a6 a73b
000003f0: d6ac 4abd 1855 8a3c d881 c33c 58b3 f13c
0.043442637 0.044411734 -0.004116401 -0.018517405 -0.04414721 0.032597832 -0.056952976 -0.06057521
-0.05573292 0.054391228 0.008151312 0.010672953 -0.019237205 -0.024059549 -0.043528475 -0.051640272
-0.014174618 0.03667569 -0.03514891 -0.05587107 0.026297048 0.032016903 0.04366459 0.013924845
0.05476564 0.00045010448 0.031262375 0.047435038 -0.034692243 0.013875812 0.05453849 -0.041191116
0.009588715 -0.02993729 -0.007528143 0.048598316 0.013198711 0.0017978102 -0.059242673 -0.04588625
-0.004898697 -0.025935844 -0.0567587 -0.0155931115 0.008892662 0.042652503 0.04760015 -0.055073306
-0.0062470287 -0.023239374 0.062316276 -0.040826946 -0.039650895 0.049331807 0.0038385391 -0.04170592
-0.0069333687 -0.0099088475 0.0125485435 -0.005093418 -0.058432817 0.045928635 -0.020956308 -0.045685083
0.0017675832 -0.026048034 0.040021688 -0.0072968975 -0.050288916 -0.02738981 0.013788246 0.05819291
0.033844337 -0.031608067 -0.015076958 -0.060926028 -0.046247162 -0.019851685 0.059993125 0.008790545
-0.04684888 0.058853514 0.05788295 0.024469234 0.029291593 0.017562605 0.035178743 -0.004304588
-0.022604793 -0.053331673 0.0016106367 -0.024298936 0.058064558 0.004253976 -0.053763904 -0.040821493
-0.020079367 -0.040191345 -0.008836187 -0.05294873 -0.027629271 -0.05584424 0.054859914 0.016644813
0.024269491 -0.03658463 -0.035506383 0.0076302737 0.034791 -0.02667708 0.015339851 0.0456212
0.020078974 0.0011806833 -0.04091187 -0.0066731004 0.051774576 0.034058705 0.00014864653 0.02385994
-0.02640983 -0.044560928 0.059338145 0.011094474 0.0339847 -0.015847817 0.05052861 0.044590116
0.057558738 -0.04412649 -0.010313511 -0.057393774 0.010943763 0.03393781 0.03884536 0.019723184
0.026985623 -0.029199503 0.0010098815 -0.04162611 -0.059093684 -0.05081501 0.048433423 0.061374575
-0.044801123 0.018004544 0.047058813 -0.061843015 -0.03403888 -0.012799658 -0.05474312 -0.03790296
-0.041899964 -0.025403775 0.022419639 -0.022742115 0.041477386 -0.0044524726 0.024543695 -0.03069526
-0.048380554 0.061836917 -0.022994494 -0.0043926584 0.05545169 0.035717398 0.034902938 -0.048485696
0.044762213 -0.047579717 -0.028827844 0.0021568406 0.044229537 -0.015899979 0.024364859 0.050550573
-0.040424876 0.06204401 0.015124805 0.052003868 0.05444909 -0.057150744 -0.0031886548 -0.030900568
0.005853556 0.00075861067 -0.028163955 0.021391742 -0.060864367 0.0061386228 0.028960362 -0.020002708
-0.00516057 0.052704595 0.0439696 -0.03416849 0.045183294 0.061730184 0.0002842322 -0.024085097
-0.010317892 -0.04271111 0.024943627 -0.050090432 0.034387928 0.039206266 -0.047049347 0.011825462
0.008348554 -0.007326275 -0.005888462 0.002676092 0.012168646 -0.060494564 -0.025323562 -0.018929802
-0.046809293 0.045760825 0.05771672 0.03589093 -0.0055086324 0.026469022 -0.026090017 0.03454162
-0.015946 0.05909785 0.024604008 0.045368128 -0.059716873 0.060923547 0.059722602 0.038814835
0.018419497 0.053021915 -0.00071413815 -0.04964912 0.018883407 -0.030241793 -0.0219472 0.051362246
-0.0026803017 -0.0057812855 0.035266876 -0.021323867 0.025525168 -0.010794848 0.053594306 -0.049002603
0.025788821 -0.038284265 -0.0373493 0.005116299 -0.049481235 0.016886279 0.023865625 0.029504463

gru.weight_hh_l0 f4 [768, 256]
00000000: 34f0 f43c 7880 cebc 905a 2e3c f0b7 c73c
00000010: 4015 903a e688 383d cec4 7a3d 682c 283d
00000020: 2856 d53c c8a1 bdbc 50ab 09bd 7aa3 5c3d
00000030: 1057 68bd b8aa 103c c03d d63b 10cf 3dbd
00000040: 808c 943a 884b ce3c 3e78 273d 60b4 69bd
00000050: b48b d7bc 6850 433d d262 763d e853 75bc
00000060: a876 963c ae7a 7c3d 2682 62bd 84cf 7d3d
00000070: c423 673d 9267 68bd e835 72bc e885 063c
00000080: 46e2 26bd 789f ab3c 6c7d 2bbd f833 223d
00000090: 94f1 d13c 18fb 7fbc c0a0 46bb e4dc 1c3d
000000a0: ae05 0ebd b2bd 5dbd ac00 453d 5621 653d
000000b0: d009 cdbc 9491 0e3d 2c42 5cbd 40f1 e3ba
000000c0: 0070 57bc 7c54 663d 0407 5e3d c0ba fd3b
000000d0: 10c2 7fbc e86c acbc 3469 163d 5cb1 e5bc
000000e0: 8acd 5cbd 3ed3 553d 50fe 123c 002d 2ebc
000000f0: e80b a9bc e816 02bd bc65 3c3d 78ec b4bc
00000100: 6c49 0f3d 90dd c33c e828 6cbd d098 33bd
00000110: 3052 f53c d636 7a3d 12b5 73bd a828 093d
00000120: 508b 183c cecb 783d 4e69 37bd 9067 30bd
00000130: e0b2 4fbd c82b 443d c04e 31bd 507b af3b
00000140: 48ee 443c 9647 273d fc83 8e3c 7051 5f3d
00000150: ec04 f03c 78a0 0fbd 50ca e1bc 2209 423d
00000160: 68a2 9b3c 6ea6 783d f4e4 9d3c 220c 5dbd
00000170: 2034 853c 4c63 de3c 926f 6dbd 98a9 913c
00000180: 56ec 2abd 4c60 10bd 3cf4 16bd 50a0 2b3d
00000190: f2c9 1bbd 9895 84bc e08c 933c 2462 82bc
000001a0: 3801 6fbd 286a 313d ac01 42bd 9c42 d8bc
000001b0: 12f0 1b3d e854 153d ec57 68bd c059 403c
000001c0: 00d0 233c 6a41 5c3d 9247 773d 58fc a23c
000001d0: 20f5 623d 8816 00bc e6dd 1dbd c278 773d
000001e0: 007c 87bc 54ae bfbc 4445 a5bc 20e9 4e3b
000001f0: f4e1 7dbd fcd8 29bd f831 323c 20a9 603d
00000200: 7ad7 6dbd fac5 083d c032 31bc b0e4 82bb
00000210: 00f4 1639 021b 703d 3cc1 a0bc 8614 063d
00000220: 9863 c03c 5ab1 683d 78d4 123c 8452 c83c
00000230: e6c2 743d b239 1ebd 069c 573d c6f9 343d
00000240: 909c 3e3d e8d0 053c e825 27bd 00a5 deb9
00000250: aa5d 06bd c0d6 4cbb 3ce2 02bd 808f d13b
00000260: 9c9b 8f3c de20 43bd de24 28bd d8c6 543c
00000270: c4e3 6d3d 4a53 45bd 68e8 223c 4052 e4bb
00000280: 10c6 9cbc 780c 44bc 3cac e73c 3498 3e3d
00000290: a000 473d 6eb6 7f3d dec1 1a3d 9ca3 1bbd
000002a0: 2089 6f3c c0d2 93bc 7c77 023d 907b 223c
000002b0: a806 3abd 7004 fabc 4a4a 243d 8e42 78bd
000002c0: 44cb 363d 8019 9b3b a433 52bd 14b0 bd3c
000002d0: 106a 0abd 509a 2fbd 667f 043d 74c6 ad3c
000002e0: 763f 0bbd 4e95 533d 588a a13c 700f d43c
000002f0: 08a0 783c 542a d4bc de19 31bd dee9 063d
00000300: 0436 c63c 70df f3bb 7c97 3bbd 1080 393d
00000310: f4c0 b43c 749e c53c 88db 65bd 76a3 013d
00000320: b0dd 203c 62bc 783d 16d9 593d b897 34bd
00000330: 081f 8cbc 108d 8b3b fc6d 663d 90cf 18bc
00000340: e424 683d 9cd6 863c 78fb 123c a8fd 2b3d
00000350: 00e8 fc3b e87b 3fbc 441c 07bd 442c 143d
00000360: e04c 22bd b40e 483d 32cd 01bd 00ae d039
00000370: 62f6 0f3d 408a 72bb 90b7 babb 3665 49bd
00000380: be81 50bd 90f4 4a3d f4c5 48bd f49d 983c
00000390: 6ed7 323d 10b8 703d 1094 5c3d 1cec 9cbc
000003a0: 04ee 39bd 80c5 51bd feba 043d 8086 fd3c
000003b0: 804c dabb aa85 6b3d 585d 333d 7498 033d
000003c0: 90d0 263d 1a1e 073d 6a40 0f3d f8a6 62bd
000003d0: 708b 413c 14da e0bc f0d4 59bd 08ba 7a3c
000003e0: c0ae 6e3b 3a36 703d c8e4 69bc b4d4 cbbc
000003f0: 3c5b b3bc 7007 24bd f071 26bd 64a8 a5bc
0.029899694 -0.025207743 0.010641709 0.0243797 0.0010992661 0.04505243 0.061222844 0.041057974
0.026042059 -0.023148432 -0.033610642 0.05386684 -0.056723654 0.008829765 0.006538123 -0.04634005
0.0011333376 0.0251825 0.040886156 -0.057056785 -0.026311733 0.047684103 0.060152836 -0.014973618
0.018367127 0.061640434 -0.0552999 0.06196548 0.056430593 -0.056739397 -0.01478336 0.008210637
-0.040743135 0.020950064 -0.04186766 0.039600343 0.025627889 -0.01562383 -0.0030308217 0.038296595
-0.034673385 -0.054135986 0.048096344 0.055939995 -0.025029093 0.034806803 -0.053774044 -0.0017390624
-0.0131492615 0.056232914 0.05420591 0.0077432096 -0.015610233 -0.021048024 0.036721423 -0.028038673
-0.053906955 0.05220341 0.008971766 -0.010630846 -0.02063556 -0.031760126 0.04599546 -0.022085413
0.03498213 0.02390936 -0.0576562 -0.043846905 0.029946417 0.061087452 -0.059498854 0.03348604
0.009310558 0.06074124 -0.04477816 -0.043067515 -0.050707698 0.047893316 -0.043287992 0.005355276
0.012019701 0.040839754 0.01739692 0.054521024 0.029299222 -0.035065144 -0.02756229 0.04737199
0.01899834 0.060705595 0.019274212 -0.05396665 0.016260207 0.027146958 -0.05796773 0.017781064
-0.041729294 -0.035248086 -0.036854014 0.041900933 -0.038034387 -0.016184613 0.01801151 -0.015915938
-0.05835077 0.04331413 -0.047364876 -0.02639895 0.038070746 0.036457926 -0.056724474 0.011740148
0.0099983215 0.05377332 0.06037099 0.019895718 0.05540955 -0.007817872 -0.038541697 0.060417898
-0.01653862 -0.023398556 -0.02017463 0.0031572059 -0.061983064 -0.041466698 0.010876171 0.05484879
-0.058066823 0.03339193 -0.010815322 -0.003994547 0.00014396012 0.058619507 -0.019623391 0.032734416
0.02348499 0.05680976 0.008961789 0.024453409 0.059756182 -0.03862924 0.05263903 0.044183515
0.04653603 0.008167483 -0.040807635 -0.00042466074 -0.03280417 -0.003125593 -0.031954035 0.0063952804
0.017530255 -0.047638766 -0.041050784 0.012986861 0.058078542 -0.048175134 0.009943105 -0.006967813
-0.019137412 -0.011965863 0.02828037 0.04653187 0.04858458 0.062429838 0.037782542 -0.037997827
0.0146200955 -0.01804483 0.03185223 0.009917155 -0.045416504 -0.030519694 0.04010991 -0.060610346
0.044627443 0.0047332644 -0.05131878 0.02315525 -0.033792555 -0.042871773 0.03234806 0.021212794
-0.033996068 0.05165606 0.019719288 0.025886267 0.015174873 -0.02589909 -0.04323756 0.032937877
0.024195679 -0.0074424073 -0.045798764 0.045288146 0.022064663 0.024123408 -0.056117564 0.03165003
0.009818479 0.06072653 0.053185545 -0.044090003 -0.01710464 0.0042587593 0.056257233 -0.0093268305
0.056675807 0.016459756 0.008971088 0.041989952 0.0077180862 -0.011687256 -0.03298594 0.036175027
-0.039624095 0.048842147 -0.03168983 0.00039802492 0.03514708 -0.0037008673 -0.005698152 -0.049168788
-0.05090498 0.04954964 -0.049016908 0.018630005 0.04366248 0.058769286 0.05385214 -0.019155554
-0.045393005 -0.05121374 0.032404892 0.030947924 -0.0066619515 0.05750052 0.04379019 0.032127813
0.040726244 0.03298769 0.03497354 -0.055335015 0.01181303 -0.027447738 -0.05318159 0.015303142
0.0036420077 0.058645464 -0.014275737 -0.024881698 -0.02189409 -0.040046155 -0.040636003 -0.020221896

gru.bias_ih_l0 f4 [768]
00000000: 60b4 d53b 9cde e33c 3095 00bd 8e3b 743d
00000010: 44fa f03c 2435 9a3c a852 2abd aa5e 553d
00000020: 3938 4339 b2bc 1cbd 9cee c4bc 6c7d f73c
00000030: 0030 e73b 8051 913b 0807 fc3c c0d6 7bbd
00000040: b8d5 62bd 00de 3fbc e2c1 54bd 60f1 95bb
00000050: b81a 79bd a046 073b 6e2c 17bd f43e 53bd
00000060: f6f7 683d 9caa 3e3d 40bf 9ebc 3054 73bc
00000070: d3c3 c93c a04b 5b3b c796 ebbc 1826 a03c
00000080: 60ce 3b3d 30ec 6cbc e636 4a3d 30db 1dbc
00000090: a2fd 163d 5c11 473d 740e 4bbd b640 b2bc
000000a0: f7d1 94bb f8b0 073d 42d5 91bd bafe 6fbd
000000b0: d0b4 0e3c 5884 c03c 1816 193c 1aa6 0c3d
000000c0: c4fc ce3c 1680 7dbd a67f 1abd 70cc 6a3d
000000d0: 94cf 713d f479 13bd 5e74 56bd 7e4d 79bc
000000e0: fecc 1f3d 2a78 62bd 5815 e13c fdf8 4b3d
000000f0: 1868 1dbc da10 25bd f8b2 e43c 242b 683d
00000100: 8c82 fcbc e48d 7e3d 9aa3 043d 80cb 2bbc
00000110: 8cd3 cf3c c8a4 c3bc b89b 123c 705c d73b
00000120: 3c0d 5dbd e8d5 973c e003 fa3b ec5e 20bd
00000130: 6804 d6bc 5442 15bd 66b4 4a3d 506b b0ba
00000140: 5021 883b 10ec 4c3d 60c9 e53c e606 0e3d
00000150: 0095 563b 4434 163d 78c1 583d d4a3 c7bc
00000160: 101f a33c 6026 6f3b f0a2 afbb 1cd7 213d
00000170: d0f4 f5bb 9c30 7a3d f487 913c 0c4f 8b3c
00000180: 0a2c 04bd c05a 7abd 9835 583c 789c 663c
00000190: 7ea5 39bd 80cb 06bb 2265 323d c853 e33c
000001a0: e21b 04bd 1028 263d 74c2 2fbd 874e 3bbd
000001b0: 2cbe 8c3c 8cb8 d23c 54ed 40bd 5836 dc3c
000001c0: 485f 5cbd 4055 cf3b 3039 e53c 12ee 4b3d
000001d0: 8069 10ba 06f0 4a3d 8036 393a a8cc a13c
000001e0: d4f6 013d bc8c 593d 680c 79bd 002c 213c
000001f0: 500a 26bc 2cb0 c03c 5cd9 5c3d 5024 2fbc
00000200: 4057 78bd a8ab 4bbd 3445 76bd 22f5 103d
00000210: a48d 863c 70a3 9abc 1845 72bd cc6b 8d3c
00000220: 445d ad3c 40b3 603d a62d 44bd 32d9 4e3d
00000230: f06a 98bb 18a0 1ebd 8c66 21bd 3ed1 533d
00000240: d809 763d 605a adbb 7211 583d b6f5 4a3d
00000250: 30b7 c1bb 410c 42bb 00da a03a e40d f1bc
00000260: f048 6e3c b011 703d 5832 14bc 8e3b 73bd
00000270: 10f3 483c 4052 c13b 9435 d3bc c01f febb
00000280: 6416 76bd 6625 733d 208f 33bc e03f 223c
00000290: a195 3cbd 4092 a03b a4ce 993c a848 0f3d
000002a0: 1047 80bc 2c7c 273d b89a 6f3d f406 2f3d
000002b0: 1e7d 4abd f612 48bd 147b 27bd c623 323d
000002c0: 2837 c73c d037 6b3c 7a31 02bd 404e 363b
000002d0: 74df 153d fac1 103d 464a 763d 3c8a 4dbd
000002e0: 30f5 c53c 92e2 093d 966d 423d fa17 33bd
000002f0: c4bf 5e3d d83e 233d 600d 813b ec11 1dbd
00000300: 7898 033d 98bb 25bc 30b4 3c3c 40ad 0bbd
00000310: 3540 55bd 2109 233c 3cc2 0e3d beb4 50bd
00000320: 661f 283d 841f f83c f8ec 13bc 30ed eebb
00000330: 9094 4bbc b0eb 843b ba03 103d 0862 3fbd
00000340: a25b 173c 407a 7cbb a0cf 2b3b 20c2 7c3b
00000350: 34d4 34bd 8c0e 48bd be7d 693d c01f c33c
00000360: 46a7 0e3d 56a8 193d 02e7 533d b0db de3c
00000370: b96d 13bd 008a dcba f0bc 75bc 5813 6e3c
00000380: 2c87 7c3d c070 2a3d 6c08 28bd 9e76 25bd
00000390: 8055 45bc 8890 6c3c 4496 58bd 6861 6c3c
000003a0: 2ef1 d13c 38e0 383c 5ce3 2f3d 2031 e1bb
000003b0: acd0 97bc 9eb8 45bd 2081 a7bc 1024 903c
000003c0: 78ea ad3c 08b9 40bc 02a8 4b3d 0815 54bc
000003d0: 7c12 4cbd 28f3 49bd 9826 40bc 3603 09bd
000003e0: 02e3 043d f2c5 0e3d 8257 403d 4031 b2bc
000003f0: 5845 60bd d0c8 b03b c8ac 78bc a0d6 303b
0.0065217465 0.02781611 -0.031392276 0.05962711 0.029416211 0.018824168 -0.041582733 0.05209223
0.00018617594 -0.03826589 -0.024039559 0.030211173 0.0070552826 0.0044347644 0.030765072 -0.0614841
-0.0553796 -0.011710644 -0.051942714 -0.0045758933 -0.060816497 0.002064146 -0.036907606 -0.05157371
0.0568771 0.046549425 -0.019378304 -0.014851615 0.02462951 0.0033461824 -0.02875842 0.019549415
0.04585111 -0.014460608 0.04936876 -0.009634778 0.036862977 0.04860054 -0.04957433 -0.021759372
-0.0045416313 0.033127755 -0.07120754 -0.058592536 0.008710101 0.023500606 0.0093436465 0.034338094
0.025267012 -0.06188973 -0.03771939 0.057323873 0.059035853 -0.036004975 -0.05235707 -0.0152162295
0.039013855 -0.05529038 0.027475998 0.049798 -0.009607337 -0.040299274 0.02791737 0.056681767
-0.030823968 0.062147036 0.032382585 -0.01048553 0.025369428 -0.023882285 0.008948259 0.0065722987
-0.0539677 0.018534616 0.0076298565 -0.039153025 -0.026125148 -0.03644021 0.049488448 -0.0013459716
0.004154362 0.050029814 0.028050125 0.034674548 0.003274262 0.036670938 0.05291888 -0.024370112
0.019912273 0.003649138 -0.00536 0.039511785 -0.0075059906 0.061081514 0.017765023 0.017005466
-0.03226856 -0.061121702 0.0131963715 0.014075391 -0.04532384 -0.0020568073 0.04355348 0.027749911
-0.032253154 0.04056555 -0.042910054 -0.045729186 0.017180525 0.025722764 -0.047101334 0.026881382
-0.053801805 0.0063273013 0.02798137 0.04978759 -0.0005508885 0.04954531 0.0007065311 0.019750908
0.031729534 0.05311273 -0.060802847 0.009837151 -0.010134295 0.023521505 0.053918228 -0.01068981
-0.060630083 -0.04972425 -0.06012459 0.035390027 0.016424961 -0.018876761 -0.059147924 0.017263316
0.021162637 0.054858446 -0.047895096 0.050500102 -0.00465142 -0.038726896 -0.039404437 0.05171322
0.06006798 -0.0052903146 0.052751012 0.049550734 -0.00591173 -0.0029609355 0.0012272 -0.029425569
0.014543757 0.058610618 -0.009045206 -0.059382968 0.012264982 0.0058996975 -0.025782384 -0.0077552497
-0.060079947 0.059361838 -0.010959417 0.009902924 -0.046041135 0.004900247 0.018775292 0.0349814
-0.015658885 0.040889904 0.05849716 0.04273124 -0.049435727 -0.048846208 -0.04088886 0.043491147
0.024318293 0.014356568 -0.031785466 0.0027817637 0.036590055 0.03534124 0.060129426 -0.05018066
0.024164766 0.03366334 0.04746779 -0.043724038 0.0543821 0.039854854 0.003938362 -0.03834717
0.032127827 -0.010115527 0.011517569 -0.03410077 -0.052063186 0.009950907 0.034853205 -0.05095362
0.04104557 0.030288465 -0.009028666 -0.0072914585 -0.012425557 0.0040564165 0.035159804 -0.04672435
0.009238156 -0.0038525015 0.0026216283 0.0038567856 -0.044147685 -0.048841998 0.057004683 0.02381885
0.034827493 0.037514053 0.051733978 0.027204365 -0.03599331 -0.0016825795 -0.0149986595 0.014530979
0.061652347 0.041611433 -0.041023657 -0.040396325 -0.012044311 0.014438756 -0.05287768 0.01442752
0.025627699 0.011283927 0.042941436 -0.0068723112 -0.01853212 -0.048271768 -0.020447314 0.017595321
0.021229967 -0.011762865 0.04972077 -0.012944467 -0.049822316 -0.049304157 -0.0117279515 -0.033450328
0.032443054 0.034856744 0.046958454 -0.021752 -0.05475363 0.0053950325 -0.015177913 0.0026983395

gru.bias_hh_l0 f4 [768]
00000000: acb9 a6bc 3cf3 8ebc 8a95 183b 60ce 583d
00000010: 62ec 45bd 5801 d73c 34a6 adbc d873 2ebd
00000020: 8e44 2dbd 9623 753d 04da 4a3d 2384 2bbd
00000030: 640f 5dbd e816 653c 80ad 95ba 7423 adbc
00000040: 7c34 103d d855 573c 0040 f3bc 169e 00bd
00000050: 5c90 913c 3e5f 11bd 36cc 6abd 94d4 943c
00000060: 8c16 203d 603a 34bd 60b2 5b3d 84ee 3fbd
00000070: a9b2 f7bc d0ed 16bd 473b d9bc 300f e73b
00000080: 2c56 f03c ac1a 993c 0aa9 74bd e8c3 053d
00000090: f4e7 08bd 6275 043d 8e3e 403d 27a7 4d3c
000000a0: f458 81bd a8d2 bb3c 8657 f8bc dee5 723d
000000b0: 4058 f2bc fc8c 483d 60f4 64bd 601e 093d
000000c0: da81 38bd f48a 94bc d678 023d 923e 56bd
000000d0: 721c 31bd 106f a0bb 0207 153d 54e0 bf3c
000000e0: 5881 653d a0be ee3b 1890 253c f16a 9cbc
000000f0: 8801 5e3d 648f e33c 60ef a8bc c00d 433c
00000100: 02e0 5e3d a059 ce3c eceb b53c b019 fdbc
00000110: a045 aabc 788f 2a3d f028 97bb b07e 76bc
00000120: 66d5 29bd 8467 44bd 30de 6a3d 24f4 273d
00000130: d46c dbbc 1a13 2f3d 3c67 cabc af9a 4bbd
00000140: b434 0a3d a8a7 93bc 9863 e9bc 288d 72bd
00000150: d0cf 3a3d 0810 7abc 7a0a 5e3d a072 3a3c
00000160: 9c1b d4bc 0461 78bd 044b 973c 5459 51bd
00000170: 50e6 0cbc c855 6ebd e0e2 56bd f463 e1bc
00000180: d837 3e3c 6029 ea3c d057 cdbb dcc6 41bd
00000190: c082 50bb 301b 213c 4485 243d 387e 34bc
000001a0: 92ca 7b3d 2c90 a73c f838 fb3c 13b2 4bbd
000001b0: 1899 2b3d a896 0f3c 0c78 8bbc 2828 e13c
000001c0: 3092 cfbb 203e 1bbd 9c08 97bc 7a2e 293d
000001d0: 408b a5bc 5cf4 e4bc e6f0 7a3d 6cea 6d3d
000001e0: 701f 1b3c 682b 953c 04cb 4d3d 0082 96ba
000001f0: 8071 0c3d 2ca1 e63c c001 0cbc 48ff 073d
00000200: 687f 3e3c 188a 5cbd 92bd 68bd d8eb 35bd
00000210: 1a68 373d 1039 b9bb 7cc3 913c f81d 40bd
00000220: f0c7 52bd 763d 713d e4a5 03bd 4cc4 513d
00000230: 4c69 23bd a424 52bd 8af8 1f3d fcb6 f83c
00000240: 022b 5cbd 1083 c73b 3cf1 cd3c c4df 85bc
00000250: 70b1 dbbc 16f2 4e3c 1893 7a3d c00f 3c3d
00000260: d250 4bbd 8006 94bb 20e7 333d 6c5b 683d
00000270: 0875 f9bc 22fa 493d 600c 3dbc c873 a4bc
00000280: dc76 47bd ce62 793d e8b0 b63c 1297 423d
00000290: 3578 193d d608 453d d8aa 39bc eee0 ebbb
000002a0: 3cab 6b3d 309e a03c 68bf 30bd c4e0 383d
000002b0: a075 46bb 4478 63bd 90a9 1a3d 9455 363d
000002c0: 00f2 743b 5c0d c13c 0624 7ebd a871 183d
000002d0: 1c0d b1bc 205f 1dbc 94e5 fc3c b814 e43c
000002e0: d663 7f3d 5898 8a3c 1688 a83a 2273 5ebd
000002f0: 4c14 463d de85 783d c24d 0a3d 1472 55bd
00000300: 38c4 30bc 50bd 45bd b8da 903c 4469 cb3c
00000310: cec9 473c b59a 17bd 0855 6abc 065c 593d
00000320: 11b8 f9bc 84b0 8e3c 003f 42bd c081 95ba
00000330: 6850 0fbc 207e 513b c658 003d 4606 073d
00000340: 0d08 c3bc 88ff e6bc a0eb 46bd 044f 1cbd
00000350: d61a 5ebd 2edc 6abd 36fd 3e3d 70e5 09bd
00000360: 5834 e53c 5015 bebb c0d2 54bd 80b2 103d
00000370: 2f54 4f3d 28a8 163d dac2 50bd a43c a4bc
00000380: 14db 31bd d0e0 8f3b d4f4 2f3d ae2a 683d
00000390: bc1c 67bd dc2c 163d ec4a c9bc f81e f0bc
000003a0: 6dff 2cbd c8b9 6abd ce25 303d f8e0 12bc
000003b0: 20a8 1a3d 18dc 05bc fccd 90bc d086 6c3d
000003c0: 3cb9 583d a48d 2d3d 609d 7b3d 7804 dbbc
000003d0: 0a32 303d cea5 373d 50e8 613c e842 61bc
000003e0: 08bd 7abd 8065 99bb 8437 e8bc 2aa8 02bd
000003f0: ea6f 10bd 8c05 383d 4cd7 b4bc 74d0 c4bc
-0.020352207 -0.017449968 0.0023282492 0.05293119 -0.048321135 0.026245758 -0.021197416 -0.042590946
-0.042301707 0.05984839 0.049524322 -0.041874062 -0.053969756 0.013982512 -0.0011419505 -0.02113507
0.035206303 0.013143025 -0.029693604 -0.031400762 0.017769031 -0.03549122 -0.057323657 0.018167771
0.039084002 -0.044000983 0.05363691 -0.046858326 -0.030236559 -0.03684789 -0.026517523 0.007051371
0.029337965 0.018689476 -0.05973152 0.032657534 -0.033424333 0.032338507 0.046934657 0.012552059
-0.063157946 0.022927597 -0.030315172 0.05930125 -0.029583097 0.04896258 -0.055897117 0.033476233
-0.04504571 -0.018132664 0.03185352 -0.052305765 -0.04324002 -0.004896052 0.036383636 0.023422398
0.056031555 0.007285908 0.010105155 -0.019093962 0.05420068 0.027778335 -0.020621955 0.011905134
0.05441285 0.02518922 0.022207223 -0.030896038 -0.020785153 0.04164073 -0.0046130344 -0.015044853
-0.04146328 -0.047950283 0.0573408 0.041004315 -0.026785292 0.042742826 -0.02470743 -0.049708065
0.033741668 -0.01802428 -0.028489873 -0.05921665 0.04560834 -0.015262611 0.05420921 0.011379868
-0.025892071 -0.060639396 0.018468387 -0.05111058 -0.008599833 -0.058187276 -0.05246246 -0.027513482
0.011609994 0.028584182 -0.0062665716 -0.047308788 -0.0031816214 0.009833142 0.040166155 -0.011016421
0.061472483 0.020454489 0.030666813 -0.04973037 0.04189405 0.008763947 -0.017025016 0.027484968
-0.0063345656 -0.037901044 -0.018436722 0.04130409 -0.020208001 -0.02794855 0.061264895 0.05808489
0.0094679445 0.018209174 0.05024244 -0.0011482835 0.03428793 0.028153025 -0.008545339 0.03320244
0.011627056 -0.053842634 -0.056821413 -0.04441437 0.044777013 -0.0056525543 0.01779341 -0.04690358
-0.051460207 0.058896504 -0.032140628 0.051212594 -0.03989534 -0.051304474 0.039055385 0.030360691
-0.053751953 0.006088622 0.025139444 -0.016342051 -0.026818007 0.01263096 0.061175436 0.045913458
-0.049637623 -0.0045173764 0.04392159 0.05672781 -0.030451313 0.04931081 -0.011538595 -0.02007474
-0.048697338 0.060885243 0.022301152 0.047507353 0.037468154 0.04810413 -0.011332236 -0.0071984446
0.05753635 0.01960668 -0.04315129 0.04513623 -0.0030282512 -0.055534616 0.037759364 0.044515207
0.0037375689 0.02356594 -0.062046073 0.037217766 -0.021612696 -0.009605199 0.03087119 0.02784191
0.06235107 0.016918346 0.001285794 -0.054309018 0.0483592 0.06067454 0.033765562 -0.052110747
-0.01078897 -0.048276246 0.017682418 0.024830468 0.01219411 -0.037012774 -0.0143025 0.053066276
-0.030483278 0.017418154 -0.047423363 -0.0011406466 -0.008747198 0.0031966045 0.03133466 0.032964967
-0.02380755 -0.028198019 -0.048564553 -0.038161293 -0.05422481 -0.057338886 0.0466282 -0.033666074
0.027979061 -0.0058008805 -0.0519588 0.03532648 0.050617393 0.03678146 -0.050967075 -0.020048447
-0.04342182 0.0043908134 0.042958096 0.056681328 -0.056423888 0.036663875 -0.024571858 -0.029311642
-0.04223578 -0.05730608 0.043004803 -0.00896477 0.037757993 -0.00817015 -0.017676346 0.057745755
0.05291103 0.042371407 0.06142938 -0.02673553 0.04301647 0.044835858 0.013788298 -0.013748862
-0.06121543 -0.004681289 -0.028346784 -0.031898655 -0.03526298 0.044927165 -0.022075318 -0.02402518

linear.weight f4 [1, 256]
00000000: 1116 bbbd f075 b63b 7a67 6d3d 78a0 bf3c
00000010: cf4e 693c c6cf cf3d c2b7 9bbd 82f1 653d
00000020: b101 76bd 0404 0fbd 9ef0 a3bd 81e4 debd
00000030: bf97 ae3d 4c11 9cbb 8144 15bd 9c41 e2bd
00000040: f4d3 573d 7ef8 adbc c208 573d c817 103d
00000050: c0c7 e13d 5e7a 793d d8b6 0d3c d876 c03c
00000060: 3631 7f3d 8a91 233d b8ee f4bc faa4 d2bb
00000070: f54e cfbd c037 40bd 6e4a 58bd cc9a a5b9
00000080: 47bf c9bd d564 a1bd 162b debd 402e 673d
00000090: 782d 83bd 46a0 2fbd 2b36 963d 8e9d b9bd
000000a0: 8a0d dabd f51c 913d 62ae 4b3d 81f6 abbd
000000b0: 3446 563d e385 99bd 644d d83d 2f62 7d3d
000000c0: c0b5 7f3c 1eaf 0ebe 682f 38bc 7d6d af3d
000000d0: 32f0 933d d04c 863c 4f36 ca3d 7b7d e93d
000000e0: 44e5 adbd 3357 54bc 5d8e 843d 8332 bfbd
000000f0: b8b2 5bbc 0697 4b3d 3d75 033e 31ec 6dbc
00000100: 9dc0 5b3d de15 b13b 20b0 773c 5658 24bd
00000110: a74f 443c 8b51 8b3d 007e e9ba 58c3 07bd
00000120: a11c 64bd 65ec 0d3b d0bb 44bd 8db4 adbd
00000130: 7150 c23d 443d cbbc b991 16bd da9a 5d3d
00000140: 41d6 b4bb 4212 f43d 0fd2 4c3a 2ec1 03bd
00000150: 77c5 b1bd d839 acbc e0d5 9e3c f80a fd3c
00000160: 7012 2bbd 89ae 52bc 1fe7 08bb 8449 383b
00000170: a500 50bd 2464 79bd 1f0c f43c 1fd5 2c3d
00000180: bbe5 0c3d 90e2 513c ad3d e63b 2e3c a5bd
00000190: b1e8 a3bc d156 1cbd 2bff 91bd 90c7 c83d
000001a0: 1d8f 0fbe e3e3 c23d 0075 50bd cf3e a93d
000001b0: 5298 523d ceed c93d ba76 623d e48e d43c
000001c0: 9ca2 123d 2845 c5bd 389b d6bd c0e3 5cbd
000001d0: 3884 c8bd 4620 bb3a 08fd f83d 9a52 883d
000001e0: cc48 303d 6e8b ea3b b442 aa3d df55 61bd
000001f0: 7b9a 6dbd 389a 303c 621a 323d 1f3e c3bc
00000200: 6a4f 5fbd d3f3 933d 9213 733d db5a e7bd
00000210: 0cac db3c 7c33 113e f93e 2a3d f8b8 12bd
00000220: ab42 cbbc 23e0 003e f700 b73c 3a41 f0bd
00000230: 3a0f 133e 64c8 253d 63be aabc b73a d6bd
00000240: 7d10 8a3d 3664 2fbd 44f8 2b3d 6c7e 21bd
00000250: fd02 3d3d 44f6 70bb 2025 67bd 1229 64bd
00000260: c72f 45bd d7e6 f93c 8a6e 353d ca34 97bd
00000270: bc3a ee3c 2814 363d 9c11 febd 7ba5 7f3d
00000280: 0437 91bc 2620 18bd 1ce5 d0bb eac5 cebc
00000290: af9c c2bd dfd3 7ebd 247d 9b3d 1fe0 cb3d
000002a0: a803 6cbd 89cd fbbd 68a6 4abd 8877 663c
000002b0: 32d9 dcbd dcb5 253b d26f f23d 1ac9 c33d
000002c0: e981 59bd d6ed d5bd 6bb1 d5bd 98ca 79bd
000002d0: 6a79 58bd 01bb a5bb cc0a fb3c ee48 f2bd
000002e0: 1087 1e3d 4d71 f1bd 941c a63c 3310 103e
000002f0: f8e2 7e3c b634 bdbc 4433 a23c 8ad5 073d
00000300: 97d9 01bd f91c c2bc 7658 a4bd 04c8 e8bd
00000310: fef4 49bd 31ee 3c3b 81df ab3d 22bf 4bbd
00000320: 76a9 f9bd 3d51 f3bd 8b01 c93c 58a2 60bc
00000330: e2a2 913c c0c0 b8bb d82b ee3c b641 b4bd
00000340: 080b d13d 587e b33c 2e41 143e 66af bbbc
00000350: 2183 35bd 035f a73d d272 dc3c 64dd 573b
00000360: 2975 1ebe 93b7 04be 89c6 363d a6a8 ae3d
00000370: 005d d7bd 12a7 cbba bf20 083e 2170 313d
00000380: 1ec6 3abd 1ff5 06bc bb1b 6a3c 5f3d ebbc
00000390: 1fc8 333d 049c a4bc f02d cd3d 64f8 a0bd
000003a0: 23e2 e8bd 55c5 9abd 1ade cb3d 005b 07bd
000003b0: 6804 62bc 18da 0bbe 3425 103d 3901 49bd
000003c0: 66f9 013e a1f7 50bc ec3f 2bbd f27a db3d
000003d0: ce2e f03d 5f1e 16bd 3e3f 96bc 1061 8d3d
000003e0: d6fe a4bd b38e 02be a6b6 b1bd 44ce 1f3e
000003f0: 6a4e 6a3d cae9 e03d d340 c1bc e300 b1bd
-0.09135068 0.0055682585 0.05796001 0.023391947 0.014239981 0.101470515 -0.076034084 0.056138523
-0.060060207 -0.03491594 -0.080048785 -0.108834274 0.08525037 -0.004762804 -0.036442284 -0.1104767
0.05269237 -0.021236654 0.052498586 0.03517893 0.110244274 0.060907714 0.00864955 0.02349417
0.06230279 0.03993372 -0.029898986 -0.006428358 -0.10122482 -0.046928167 -0.052805357 -0.00031586585
-0.098509364 -0.0788056 -0.10848062 0.05644059 -0.06405157 -0.042877458 0.073345505 -0.09063254
-0.106471136 0.07085601 0.04972685 -0.08396626 0.052313045 -0.0749624 0.10561636 0.061861213
0.015607297 -0.1393399 -0.011241771 0.08565805 0.07223548 0.016394049 0.0987364 0.114008866
-0.084909946 -0.012960243 0.06472466 -0.09335806 -0.013409309 0.049704574 0.12837692 -0.014521644
0.053650487 0.005404218 0.015117675 -0.040123306 0.011981881 0.068026625 -0.001781404 -0.03314528
-0.055691365 0.0021655795 -0.048030674 -0.08481703 0.09487999 -0.024809487 -0.036760066 0.054102756
-0.005518705 0.11917545 0.00078132836 -0.032166652 -0.086802416 -0.021023676 0.019389093 0.03088902
-0.04176563 -0.012858995 -0.0020889712 0.002811999 -0.050781865 -0.060886517 0.029790936 0.042195436
0.034398776 0.012810364 0.0070263953 -0.08068119 -0.020008417 -0.038168732 -0.071287476 0.098036885
-0.14019437 0.09516122 -0.05089283 0.08263933 0.051414795 0.09859811 0.055289008 0.025947042
0.035799608 -0.09632331 -0.104788244 -0.053928137 -0.09790844 0.0014276586 0.12157637 0.0665638
0.043038175 0.0071577346 0.08313504 -0.055013534 -0.058008652 0.010778956 0.04348219 -0.023833333
-0.054519095 0.0722424 0.059344836 -0.11296626 0.026815437 0.14179796 0.04156396 -0.03582093
-0.024812063 0.12585501 0.022339327 -0.11731191 0.14361277 0.04047431 -0.020842737 -0.10460418
0.06741426 -0.042820178 0.04198481 -0.039427206 0.046145428 -0.003676788 -0.05643189 -0.05570323
-0.048141267 0.03050558 0.04429487 -0.073831156 0.029080741 0.044452816 -0.124057025 0.062413674
-0.017726429 -0.037140034 -0.006374968 -0.025240857 -0.09502541 -0.062213775 0.07592228 0.09954857
-0.057620674 -0.12295062 -0.049475104 0.014066584 -0.10783614 0.0025285399 0.11837734 0.095598415
-0.053102408 -0.10445754 -0.104342304 -0.060984224 -0.052850164 -0.005057693 0.030644797 -0.118303165
0.038703024 -0.117891885 0.020277299 0.1406868 0.015557043 -0.023096424 0.019799836 0.03316263
-0.03170165 -0.023695456 -0.08024685 -0.11366275 -0.04930591 0.0028828497 0.08392239 -0.049742825
-0.12190525 -0.11880729 0.024536869 -0.013710581 0.017777864 -0.005638212 0.02907364 -0.08801596
0.10207182 0.021910831 0.14477989 -0.022910785 -0.044314507 0.08172419 0.02691022 0.0032938356
-0.1547438 -0.12960653 0.04462293 0.08528261 -0.10515785 -0.0015537462 0.13293742 0.043319825
-0.045599096 -0.008237152 0.014288838 -0.028715787 0.043892022 -0.020093925 0.100185275 -0.07859877
-0.11371257 -0.07557169 0.09954472 -0.03304577 -0.013794996 -0.13657415 0.03519173 -0.04907343
0.12692794 -0.012754352 -0.041809008 0.10716809 0.11727677 -0.036650058 -0.018340703 0.06903279
-0.080564186 -0.12749748 -0.086774155 0.15606028 0.057203688 0.10982092 -0.02359048 -0.08642747
