MLP_PIE.pth (torch, 13269 bytes, 5 tensors)

network.0.weight f4 [32, 64]
00000000: 763b a63d 742b 25bd 1eeb 893d 5400 97bd
00000010: 0260 cdbd 4ee3 ebbd 6c40 793c 16d1 b63d
00000020: 5bdd 493d 8e0f 6cbd 2592 5a3d 1c34 363d
00000030: 90f3 d73d 7ad8 fabd b8ce a8bd 2477 b93d
00000040: e7a9 3a3d 427c 7e3c 01d7 75bd c8a8 173d
00000050: 4db6 5cbc 0286 e33d f10c bb3d cddd bd3d
00000060: 20af fbbd 2508 87bd ea88 933d c341 5abb
00000070: 15dd 6f3d 331d e73d 6649 933d a849 283d
00000080: 9672 bbbd 3416 88bd 86be aebd 530e 843d
00000090: 1b84 9c3d 0f8e bb3b 4e78 cb3d c4a6 b63d
000000a0: 0646 4b3c 1e3e f1bd 6baa d5bd 9f1f f6bd
000000b0: 9a0a a3bb 7a06 583d fab7 2ebd 51d8 c9bd
000000c0: a32e 883a 2585 583d 60db 313d c6fc bcbd
000000d0: 9513 aabd 40e0 85bc 9ff7 ad3d 9412 ebbd
000000e0: a1a8 7b3d d3bd 85bd f92e 6dbd 1592 93bd
000000f0: c554 b1bd 5551 c53d 45c9 253c d05a 03be
00000100: 150c 6bbc 0574 e5bd 5145 783d 14c4 8cbc
00000110: 6b3d f23d 65a7 c23d 76e1 313d 9e98 febd
00000120: 84d2 e53d 0176 efbd cf64 ab3d 01b0 f33d
00000130: e5b0 9ebd 1757 953d b972 b6bc eb2f d43d
00000140: a793 913d 326c 94bd 8677 a73d b7fa a4bd
00000150: 893d 94bd baa2 c9bd 3345 503c f382 e93d
00000160: 8b07 c33d 1428 f4bc 7948 9abd e2c7 843d
00000170: 40d1 873c 1604 6c3d f647 c83d 8c69 43bc
00000180: e401 35bd a38b b43c d5f7 b0bd 67e8 863c
00000190: 4076 8b3c dd82 cdbd 1c13 68bc 6d1a c93d
000001a0: 8919 7e3c b9db f2bd 0698 cfbd 9955 4b3d
000001b0: 325f 753c 5a1d 13bd e83b 83bd 0141 0b3d
000001c0: 4320 d83d f424 2e3d 5852 b3b9 7d90 bfbd
000001d0: 572a 23bc 1cbc df3d 9ff2 923d b9db 47bd
000001e0: 3cb4 06bd b6dc 45bd 25fc dd3b 18cc 6a3d
000001f0: 44f0 f63d 3321 e13b 9032 47bc 90c2 cbbd
00000200: e009 30bd 020e f2b9 f7ab e63c 2335 933d
00000210: dc4c d63c e613 c33b 1853 fa3d d1f3 2fbb
00000220: 38cc f63d 823b 823d 9454 4dbd 6ca5 4e3c
00000230: a20e d1bc d9a9 0c3d a2f9 1d3d 7361 053d
00000240: 60bb e83d fe81 babc 5574 b43c 198a cabd
00000250: 29e7 d83d 0495 abbd d1e4 b93d f45a 873d
00000260: 14c3 50bd ade2 323d 12d2 ad3d 52c1 e03d
00000270: c9a6 123c 8c4e 94bd 028a 003d 0156 bebd
00000280: cc74 543d bd8d 8a3d 5554 953d 4f97 b4bc
00000290: 92c7 c4bd 4e0a 87bd 2324 f7bc 52da ea3d
000002a0: 6a85 2fba cfcf a83a dd28 5bbd 3a0a efbd
000002b0: 787d d6bd 13df 97bd d923 2dbd a887 c1bc
000002c0: b774 aebd aa45 8dbd c9b0 df3c 5e8a c43d
000002d0: 4057 e63c 0291 a3bd 4d6d 983d a01a a5bd
000002e0: cfb7 ebbd 2746 81bd ca9b c7bc 4129 bbbd
000002f0: 4dc8 063b e903 07bd 2a16 9cbd 9de4 9e3d
00000300: 0c9d db3d 1c88 bfbd 00ff ab3c be4f b03d
00000310: 00dc 6a39 a0fb aabc 64ca b43d 0072 98bb
00000320: d457 4a3d 24b8 3ebd 0099 68ba dee7 f23d
00000330: ac1a 023d 0e7a cfbd d0ed 603c b089 51bd
00000340: 56b6 bb3d d6b1 d8bd f041 0abd 3498 dfbd
00000350: 3a12 a3bd 909d dd3d 608f b4bb 0a89 8dbd
00000360: 9013 633c 40cf 13bd 6200 ffbd 0093 973a
00000370: 3406 fcbd a033 1e3d 6039 833d 4c5b 343d
00000380: 0068 9cb8 3c19 f83d 80fb a5bb e2c0 cd3d
00000390: f4d0 1abd cccf 67bd ec79 a2bd 40a1 c0bd
000003a0: 784d 633d 10a9 f1bd 742c 93bd c034 243b
000003b0: 00b7 793a f626 893d 18a9 f2bd 30f9 12bd
000003c0: a02d dd3d a890 ef3d e0d2 b7bd 5e70 a43d
000003d0: e0cd bdbc bab0 e2bd b060 983c 70be 8a3c
000003e0: 5059 b23c 48da 7ebd 247f 703d c099 a1bb
000003f0: f00d 793d a093 b6bb 701d 09bd 16ba dc3d
0.0811681 -0.040324643 0.06734298 -0.073731095 -0.10028078 -0.11517964 0.015213113 0.08926599
0.049283367 -0.05763202 0.05336203 0.04448329 0.10544503 -0.12248321 -0.082425535 0.090559274
0.045572188 0.015532555 -0.060019497 0.037026197 -0.013471198 0.11109544 0.09133328 0.09270821
-0.12289262 -0.0659335 0.07203849 -0.0033303357 0.05856045 0.11284866 0.07191734 0.04108587
-0.09152715 -0.0664486 -0.08532433 0.06448045 0.076423846 0.005723722 0.09935056 0.08918527
0.012406832 -0.11779426 -0.10432895 -0.1201775 -0.004975629 0.05274055 -0.042655922 -0.09855712
0.0010389875 0.05286135 0.043422103 -0.092279 -0.08304516 -0.016342282 0.084944956 -0.11478153
0.061440114 -0.06530347 -0.057906125 -0.07205597 -0.08658747 0.096346535 0.010118787 -0.12827611
-0.014346142 -0.112037696 0.06061298 -0.017183341 0.11828121 0.09504584 0.043427907 -0.12431453
0.11221793 -0.11692429 0.08368837 0.118988045 -0.07748584 0.07292002 -0.0222715 0.10360702
0.071082406 -0.07247199 0.08177094 -0.080556326 -0.072382994 -0.09845491 0.012711811 0.1140193
0.09522923 -0.029804267 -0.07533354 0.06483437 0.01657927 0.057621084 0.097793505 -0.01192702
-0.044191256 0.02203924 -0.0864102 0.01646824 0.01702416 -0.10034726 -0.014164712 0.098194934
0.015509018 -0.11858315 -0.10136418 0.04964218 0.01497631 -0.035916664 -0.064079106 0.03399754
0.105530284 0.04251571 -0.0003420289 -0.09353731 -0.009958825 0.10924551 0.071751826 -0.04879353
-0.03288673 -0.04830619 0.0067744427 0.057323545 0.12057546 0.0068704127 -0.012158051 -0.09949219
-0.042978168 -0.00046168274 0.028158171 0.071878694 0.026159696 0.0059533 0.1222288 -0.0026848207
0.120506704 0.063590065 -0.050129488 0.012612682 -0.025519673 0.034341667 0.038568147 0.032563638
0.11363864 -0.022767063 0.022028128 -0.09889621 0.10590965 -0.08378032 0.090768464 0.06609145
-0.05096729 0.043673206 0.08487333 0.10974373 0.0089508975 -0.07241544 0.031381615 -0.09293748
0.0518692 0.06765316 0.07291476 -0.022044806 -0.096083775 -0.06593762 -0.030168599 0.114674225
-0.00066956005 0.0012879315 -0.053505767 -0.116718724 -0.1047315 -0.07415595 -0.042270515 -0.023624256
-0.08518355 -0.06898053 0.027305977 0.09596704 0.028117776 -0.079866424 0.074427225 -0.08061719
-0.11509668 -0.063122086 -0.024366278 -0.09138728 0.0020566166 -0.032962713 -0.07621415 0.07758448
0.10723314 -0.09352133 0.020995617 0.086089596 0.00022397935 -0.020871937 0.088276654 -0.0046522617
0.049400166 -0.04656233 -0.00088728964 0.118606314 0.031763718 -0.10130702 0.013728574 -0.0511567
0.09165637 -0.105807945 -0.03375429 -0.10917702 -0.07962461 0.10821068 -0.0055102557 -0.06910904
0.0138596445 -0.03608632 -0.12451245 0.0011564195 -0.12305871 0.038623452 0.06407428 0.04403238
-7.458031e-05 0.12114188 -0.0050653815 0.10046555 -0.03779693 -0.056594655 -0.07933411 -0.09405756
0.0554938 -0.11799824 -0.07186213 0.0025055856 0.00095258653 0.06696884 -0.11848658 -0.035882175
0.10799718 0.11697513 -0.08975768 0.08029245 -0.023169458 -0.11068864 0.018600792 0.01693651
0.021771103 -0.062219888 0.058715 -0.0049316585 0.060804307 -0.0055717975 -0.03347534 0.107776806

network.0.bias f4 [32]
00000000: 8b54 eebc 89aa dabd 2043 083d 4655 a83d
00000010: f8bc e03d ee7b c33c 9221 ab3d 57b0 683d
00000020: 3ca8 1bbd e81a b0bd f492 c6bd 3cb1 a1bd
00000030: 05ec 4ebd ec10 65bd d91e f73d 4b06 dd3b
00000040: d492 2fbd eae5 983d 84cb 003e 0444 48bd
00000050: 54a6 bebd 0a81 f13d b2c5 dfbd 8031 3ebc
00000060: a46c aabd a375 89bd 48b9 b9bd 23f4 9cbd
00000070: baa1 c9bd 4912 823d 608f e9bc 0cf2 41bc
-0.029093048 -0.10677058 0.03326714 0.082193896 0.10973543 0.023862805 0.083560124 0.056808796
-0.038002238 -0.08598882 -0.09695998 -0.07895133 -0.050518055 -0.05592434 0.120664306 0.006745135
-0.042864636 0.074657276 0.12577635 -0.04889299 -0.09309068 0.117921904 -0.10926379 -0.011608481
-0.08321503 -0.067118905 -0.09068543 -0.07663753 -0.098453 0.06351144 -0.02851075 -0.011837494

network.2.weight f4 [16, 32]
00000000: 9ca6 bbbd 0690 85bd 0e0d abbd 5ab1 a8bc
00000010: 0bf8 b43b 73e3 883d ffa6 24be ea63 dfbc
00000020: b98c 183e e280 0fbe 271f 963d f853 1b3e
00000030: 615c 173e d1fd 443d 61f4 13bd 49f7 ca3d
00000040: edc1 30be db38 f0bc e59e 0d3e 9f21 b7bd
00000050: d19b c83d 5117 c73d 99e5 30bd 1e1e 0dbe
00000060: b436 19be 1b9f a0bd 877c c0bd ea82 0fbe
00000070: d0b7 723d 6013 a23d 6fb7 0ebd ba9f 2ebe
00000080: 04a5 ef3d 5e96 07bc 94d4 9b3d 9b1c d0bc
00000090: 6392 2e3c 26ee d7bd 7c45 48ba a88c 28be
000000a0: 7f9c dc3d 1691 e43b 6ee2 f0bc 3c2a 23bd
000000b0: 4f9a 1bbe c225 f53d 8e5c 123e 2091 ef3d
000000c0: 18b1 ad3d e516 e53d 7a1e 1bbd 073d 98bc
000000d0: 963c 0dbe ef43 2bbd 2872 0a3d c822 28be
000000e0: d05e 1ebe 77a7 d43d 9b06 9e3d 0120 103e
000000f0: 127c 2c3e 1a19 23be 4076 30be 45d8 14be
00000100: 144f c83d cce2 953d 60be 1fbe 5c2c c83d
00000110: 2063 9e3d 5ddf 423d cf8c b63d 1d72 c0bd
00000120: 3cc8 90bd 18f1 18be ca86 063d 4ee6 c8bc
00000130: 73f4 33be 1c52 06be e350 aabd f90f eebd
00000140: a535 a13d 7411 18be 7a10 ef3d f77d 483c
00000150: 613f 4dbd 0449 233e 5313 1dbe bb67 00be
00000160: c769 5b3d d8ca 113d 385d 21be cb16 663c
00000170: 8def 00be e73c 39bd 7b4c 883d af15 023d
00000180: 8b0c 88ba 763b 3ebd cbc9 c53b c7fd 0c3e
00000190: 3879 26be 6438 1ebe 498f d1bd 8cf2 2b3e
000001a0: 03a5 14be e5f0 9d3c aeb2 f83d 55e8 09be
000001b0: 34ba 133e 9716 8cbd 1c6d 2e3e cb03 9fbd
000001c0: a8a9 90bc b53b e1bd 826c 6ebd 8e05 59bd
000001d0: 48b7 923d 8fdc 27bd c697 f4bd 6eb6 c23b
000001e0: cf99 a6bc c23f cfbd da3c 1b3e ceb7 ce3d
000001f0: 4cc2 05be 7d3e 53bd a22a 55bd 24ef cfbd
00000200: ed5b ce3d 4bf7 b03d ee44 923c 9840 fcbd
00000210: a56c 47bd 1097 7ebd c910 c9bc 1dee 30be
00000220: db29 95bd fcac 85bd c961 073d 35ca d93d
00000230: 140d 23be 2259 0ebe 918e 80bd 11ef cfbc
00000240: bef9 34be c175 1bbe ab5c d43d b7e1 b8bd
00000250: 2cce f5bd f6b4 babd 617c 263e 91b8 b33d
00000260: e4a4 11be 2cb8 eebd f53c 0d3e 3eac e03d
00000270: 5426 0c3e e8e9 0f3e cf48 853d ca22 ff3d
00000280: 126f 08be 312e 513d ceaa d1bd 8a64 023e
00000290: f4e5 1ebe 1285 c03d aebf 063c 8794 543d
000002a0: e925 b53d 50ac cabc a26b 083d f731 debb
000002b0: 488c 51bd 81fc db3c 65fd 683d c9a7 75bd
000002c0: d4ec 6dbd 9daa a43d 1b3b 24be 7775 c23d
000002d0: 276f e03d f442 eebd dc5a 1a3d ee96 f73b
000002e0: 7eb8 debc 2518 69bc 16e7 2a3e 3629 f43d
000002f0: 1943 313e 4736 0ebe d675 2c3e f4dd 3e3b
00000300: a20e 0cbe eb6b 5b3d 9693 2d3e 809a 793c
00000310: 69fe 0fbe 10cd 093e 52c7 253d 2c26 cb3d
00000320: 65b9 26be c279 2c3e 44da 733b 9f55 28be
00000330: f8c2 4d3d aa60 93bd 98ee 2c3e 1268 f6bd
00000340: ffdd e63d c332 9b3d 8dc7 313e a46d b63d
00000350: d6d4 24be 7157 493d d061 6c3c 8210 2c3c
00000360: 771f 063e c018 10be dd5c eabd 9e60 263d
00000370: e497 013e fb9e f03d 97c4 c7bd 61e3 bcbb
00000380: f24b 0bbe bdfb 18be 7213 31be 11d2 09be
00000390: cbc0 0d3e b8ab bfbd 38ad 5b3d b599 4e3d
000003a0: 1645 b13d 1441 30be df97 ddbd 0301 cbbd
000003b0: 2bc0 ddbc 9465 b33d 0cb5 293e f6b6 25bd
000003c0: 1f1d 07be e9c5 1e3b 7b7d 18be 8836 003e
000003d0: 2682 babd c3de c13d 73e0 9ebd b408 643d
000003e0: 9543 ab3c 7208 903d 1362 c03c 3059 b4bd
000003f0: c8c5 a63d c097 8dbc 49d8 af3d b066 28be
-0.091626376 -0.06521611 -0.08352099 -0.02059238 0.005522733 0.066840075 -0.16079329 -0.027269322
0.14897431 -0.14014009 0.073301606 0.1516875 0.14781334 0.04809362 -0.03612173 0.09910447
-0.17261477 -0.029323986 0.13830145 -0.089419596 0.097953446 0.09721244 -0.04318771 -0.1378102
-0.14962274 -0.07842847 -0.09398752 -0.14014784 0.05925733 0.07913852 -0.034842905 -0.17053118
0.11701396 -0.008275596 0.076089054 -0.025404265 0.0106550185 -0.1054347 -0.00076397485 -0.16459906
0.10772037 0.0069753034 -0.029404845 -0.0398352 -0.15195583 0.11970092 0.1429312 0.11697602
0.084810436 0.111860074 -0.03787086 -0.018583788 -0.13792643 -0.041812833 0.033800274 -0.16419518
-0.15465856 0.10383504 0.07716104 0.14074709 0.16844204 -0.15927544 -0.17232609 -0.14535625
0.09780708 0.07318649 -0.15599966 0.09774086 0.0773375 0.047576297 0.08913576 -0.093967654
-0.07069442 -0.1493572 0.03284339 -0.02452388 -0.17573719 -0.1311726 -0.08316209 -0.1162414
0.0787156 -0.14850408 0.116730645 0.012237064 -0.05010927 0.15945822 -0.15339403 -0.1253957
0.053567674 0.035593837 -0.15758216 0.01404352 -0.12591381 -0.045224097 0.066552125 0.03175896
-0.0010379715 -0.046443425 0.0060360185 0.13768683 -0.16257179 -0.15451199 -0.102324076 0.16791743
-0.14516072 0.019279907 0.121434554 -0.13467534 0.144265 -0.06840246 0.1703381 -0.07764395
-0.017659023 -0.10997716 -0.05820895 -0.052983813 0.071638644 -0.040981825 -0.11943011 0.0059421575
-0.020337014 -0.10119583 0.15159932 0.10093652 -0.130624 -0.051573265 -0.05204261 -0.10153034
0.10076127 0.086409174 0.017855134 -0.12317008 -0.048687596 -0.062155783 -0.024544137 -0.17278333
-0.07283374 -0.06527135 0.03305224 0.10634271 -0.15922958 -0.13901189 -0.062771924 -0.02538255
-0.17673394 -0.15181638 0.103692375 -0.09027427 -0.12002215 -0.09116547 0.16258384 0.087754376
-0.14223057 -0.11656222 0.13792785 0.109703526 0.13686496 0.14054072 0.06508028 0.12457807
-0.1332362 0.051069442 -0.102376565 0.12733665 -0.15517408 0.09400381 0.008224411 0.05189946
0.088451214 -0.024740368 0.03330577 -0.0067808586 -0.051159173 0.026853802 0.05688228 -0.059974466
-0.058087185 0.080403544 -0.16038172 0.09495061 0.109587006 -0.11633864 0.037684307 0.007555834
-0.027187582 -0.014226948 0.16689715 0.11921923 0.17310752 -0.13887893 0.16841826 0.0029123994
-0.13677457 0.053569715 0.16950831 0.01523459 -0.14061894 0.13457131 0.04047329 0.0991939
-0.1628166 0.16843322 0.0037208954 -0.16438912 0.050234765 -0.071961716 0.16887891 -0.120315686
0.11272811 0.075780414 0.17361279 0.08907631 -0.16096815 0.049155656 0.014427617 0.010501983
0.1309794 -0.14071941 -0.114434935 0.040619485 0.12655598 0.11749073 -0.097542934 -0.0057644104
-0.1360319 -0.1493978 -0.17292574 -0.1345904 0.13843076 -0.093589246 0.05363199 0.050439555
0.08655755 -0.17212325 -0.10819983 -0.09912302 -0.027069172 0.08759609 0.1657297 -0.04045769
-0.13194703 0.002422685 -0.14891617 0.12520802 -0.09106855 0.094663166 -0.07757654 0.055672362
0.020906249 0.07032861 0.023484265 -0.08806074 0.081431925 -0.017284274 0.08586175 -0.16445422

network.2.bias f4 [16]
00000000: 317a 8ebd 0e24 32be ceed 313e 58df c63d
00000010: 8e25 b43c bd8e 0abe cd91 1abe b3aa 1ebe
00000020: 6a0b bdbd d0ad 29be 941b fcbb e177 82bd
00000030: d692 a83d 8c0c 10bb f46c 8abd 97de 2abe
-0.069569 -0.17396566 0.17375872 0.09710568 0.021990564 -0.13531013 -0.15094681 -0.15494804
-0.09230693 -0.1657021 -0.0076937173 -0.06370521 0.08231132 -0.0021980135 -0.067590624 -0.16686474

network.4.weight f4 [1, 16]
00000000: 5e9e 5c3e 08b9 5abd 04c1 0c3e 1cba 4e3e
00000010: d8a6 593e 4337 153e a6c3 6fbe 72e2 37be
00000020: 22f0 383e a616 ca3d 78fc acbd 98c7 46be
00000030: 18da 2c3d 18aa 503e 3892 673d 6098 853c
0.21544787 -0.053399116 0.13745505 0.20188183 0.21255052 0.14571862 -0.23414478 -0.17957476
0.18060353 0.09867601 -0.08446592 -0.19412076 0.042200178 0.20377386 0.05653593 0.01630801
