MLP_JAAD.pth (torch, 13601 bytes, 5 tensors)

network.0.weight f4 [32, 64]
000000 58 dc b8 3d 6f 4a f4 3d 75 e9 31 bc f6 c4 4f bb
       0.09026402 0.119282596 -0.010858883 -0.0031703091
000010 97 16 eb bd 72 2d 68 3d 97 7f 59 bd 2f f2 84 bc
       -0.11478918 0.056683965 -0.053100195 -0.016228763
000020 fa 97 e4 3d 04 d8 f9 bc 8e 53 5d 3d b5 a8 5e 3b
       0.111618 -0.030498512 0.054034762 0.003397507
000030 02 ca 8b bd 39 7d d4 3d ba 87 90 bd 0c 23 95 3d
       -0.06825639 0.10375447 -0.07057138 0.07282075
000040 b4 56 aa 3a 30 90 17 3b 25 74 ba 3c 7d ab e3 3d
       0.001299581 0.0023126714 0.02276046 0.11116693
000050 ad f0 e8 3c 0f ff 21 3b 5a 2e d7 3d 85 ea a2 3c
       0.028435076 0.0024718677 0.10506888 0.019887218
000060 e6 5f d0 ba 2a 3d 9d 3d d7 7c d8 3d 64 20 99 bd
       -0.0015897721 0.07677682 0.10570686 -0.07476881
000070 c2 9c 97 bd 7a 88 e9 bc f1 55 67 3c 39 75 de 3d
       -0.07402946 -0.02850746 0.014119611 0.10862202
000080 f3 be 85 3d 4a 8f 9d bd 6f a2 8e bd c6 df 80 3c
       0.06530561 -0.07693346 -0.069645755 0.015731703
000090 1c d9 7a bd c0 6b e8 3c 3b 33 f2 3d 42 ca 8c 3d
       -0.061242208 0.028371692 0.11826178 0.06874515
0000a0 f6 5b 0e 3c 6b 3f f9 bc d7 67 93 bb 20 42 c6 3c
       0.008688917 -0.030425748 -0.0044984627 0.024201453
0000b0 21 e6 e1 3d c3 a0 bf 3d 84 93 eb 3d 65 6b 07 bc
       0.11030222 0.09356835 0.11502746 -0.008265351
0000c0 30 d1 a0 3d 34 6c 97 bd 4e 26 c8 bd 10 b7 d3 bd
       0.07852399 -0.07393685 -0.09772931 -0.10337651
0000d0 5c 78 b7 bc 3d eb d1 3d 96 7c 43 3d 29 72 e9 3c
       -0.022396259 0.10249946 0.047726236 0.028496819
0000e0 76 d4 22 3d de ac dd bd 6d 86 e3 bd c3 a2 26 3d
       0.0397534 -0.108239874 -0.11109624 0.040682565
0000f0 bf bc 14 3d 43 45 21 3d af 91 eb 3c ea db a1 3d
       0.036312815 0.039372694 0.02875599 0.079032734
000100 f8 3b 3a bc 8e b7 b2 bd 60 a8 61 bd fa f5 8a bd
       -0.011366837 -0.087264165 -0.055092216 -0.067851976
000110 f0 92 08 3d 56 e1 7b 3d a5 5f a9 3d 74 d0 18 3c
       0.033343256 0.061494194 0.08270196 0.009327043
000120 c7 8d 65 3c e2 bd dc bc d2 ce 99 bd 9f 8e f3 3d
       0.014010853 -0.026946012 -0.07510151 0.11892437
000130 c3 eb 67 bc 02 d0 a7 3c d5 a7 ab 3d ec dc 84 3c
       -0.014155331 0.020484928 0.08381621 0.016218625
000140 79 0d ed bd e9 26 85 bd 8d 11 a7 bd ae e5 51 bd
       -0.11574835 -0.06501562 -0.081576444 -0.05124443
000150 5e 0c e5 3d b7 98 56 bc c5 f3 4c bc eb db a8 3d
       0.111839995 -0.0130979335 -0.012509291 0.08245071
000160 f1 69 d5 3d cf 35 8b bd 4f b2 13 bd b0 34 b5 3d
       0.10420597 -0.067973725 -0.03605872 0.0884794
000170 20 b0 93 3c 47 f3 b3 bd b4 46 fd 3d 35 00 77 3d
       0.018028319 -0.08786636 0.12367001 0.06030293
000180 67 f3 63 bd d4 10 04 bd 04 74 74 3b b9 5f b1 3c
       -0.05565205 -0.03224261 0.0037300596 0.02165209
000190 6a a1 89 bd 06 df 8d bd 12 6f 04 3c fb 3f 0b 3d
       -0.067202404 -0.06927304 0.008083122 0.033996563
0001a0 ef af 06 bc eb a7 a7 bc aa 4f dd 3c be d7 08 3d
       -0.008220657 -0.020465812 0.027015526 0.033408873
0001b0 15 c2 d2 bd 03 30 fc bb ad c4 f6 bc 0e dd 58 3d
       -0.102909245 -0.007696153 -0.03012308 0.05294519
0001c0 72 02 c8 bd 9f 52 8d bd 40 b3 a5 3d 40 a8 df 3c
       -0.097660914 -0.06900524 0.0809083 0.027301908
0001d0 1e 67 b5 3d 1f 8c a2 bd d6 23 75 3d ee f5 be bd
       0.08857559 -0.07936882 0.05984863 -0.09324251
0001e0 db 26 00 3e 0c d0 26 3c c9 c8 60 3d 54 03 07 3d
       0.12514822 0.010181438 0.054878984 0.03296216
0001f0 15 59 ae 3d ac b5 a9 bc 90 2e 85 bd 31 e3 03 3d
       0.08513085 -0.02071651 -0.06503022 0.03219909
000200 a1 c4 d5 bc 14 9d 56 3d 7d 61 c6 bd e5 e6 c9 3d
       -0.026094737 0.052395895 -0.09686563 0.09858493
000210 64 ff 12 3d 24 a4 85 3d 15 6c ee bc 07 3f 65 3d
       0.03588809 0.06525448 -0.029104272 0.05596831
000220 53 d4 b8 3d 18 82 d2 3d da 2b f5 bd 3a 52 36 3d
       0.09024873 0.1027872 -0.11971255 0.04451201
000230 bc 69 ea 3d ef 8b 61 bc ad f1 c6 bd d1 d5 7f bd
       0.114459485 -0.013766273 -0.09714065 -0.06245977
000240 0a 21 e0 bd 4e 14 d5 3d b5 45 ce bd 3b 2f f4 3b
       -0.10943802 0.104042634 -0.10071889 0.0074519194
000250 fc 99 01 be 6d 79 64 bb c0 86 a5 bd b5 92 09 bd
       -0.12656397 -0.0034862414 -0.08082342 -0.033587176
000260 ba 7d b0 bd 1a 5e af 3c 23 7b d5 3d f5 4e 24 3d
       -0.086177304 0.021407176 0.10423877 0.04011436
000270 99 d6 c4 bb cb a7 b8 bc f1 22 e9 3b 91 94 24 3d
       -0.0060070273 -0.022540947 0.007114761 0.040180746
000280 11 6a 93 3d ef 88 eb bd 49 37 6d bc ab b8 b5 3d
       0.07197965 -0.115007274 -0.014478513 0.08873113
000290 9d 2c 25 bd ad 3f fa 3c 74 5f bd 3d f1 db 19 bc
       -0.04032575 0.030547941 0.09246722 -0.009390817
0002a0 ae 79 07 3d fe 9b 4f 3d ad b6 4a bc b8 cd 35 bc
       0.033075027 0.050685875 -0.012372655 -0.01109641
0002b0 5a 34 74 3d de 5e b0 bc 20 c2 94 bd 2b 2e 85 3d
       0.05962024 -0.021529611 -0.07263589 0.065029465
0002c0 82 6d f8 3d e1 03 b2 3c 57 28 c9 3d 68 fc eb 3d
       0.12130262 0.021730365 0.09822147 0.11522752
0002d0 87 45 40 3d 01 6c e4 bd 75 9c f4 bc 4a 7f d8 3d
       0.046941306 -0.111534126 -0.02985976 0.105711535
0002e0 45 f7 23 3d 18 7d 73 3d fe f7 2f bd 01 e9 4a bd
       0.040030736 0.05944547 -0.042961113 -0.049538616
0002f0 fb 49 69 bd ed 0a 37 3d 26 86 22 3d 1e 9d b5 3c
       -0.05695532 0.044688154 0.039678715 0.022169646
000300 86 bd e2 3c b4 f4 3d bd 45 73 6c bc 12 a3 77 bd
       0.027678262 -0.046375945 -0.014431779 -0.06045825
000310 79 71 9a bc d8 6b db 3d 50 bb e8 3d 10 73 94 3a
       -0.018852936 0.10713929 0.11363852 0.0011325795
000320 98 94 f0 bd d3 4b 96 3d 9f 14 b7 bd cd 5a e4 3d
       -0.11747092 0.07338681 -0.0893948 0.111501314
000330 3d 1f f6 3c 85 82 fd 3c b7 60 41 3d fb 5d 15 bd
       0.030044192 0.030946026 0.047211375 -0.03646658
000340 1e f4 59 bd 8d 4f aa bd f8 b6 a8 3c 35 5a 85 3d
       -0.053211324 -0.08315954 0.020595059 0.06511346
000350 6b 33 d8 3b 73 f2 f3 3c 7d 22 9b bd 77 70 00 be
       0.0065979264 0.029778695 -0.075749375 -0.12542902
000360 7a 3a c3 3d b2 d6 b5 3d 75 28 c8 3d b5 b8 ca 3c
       0.09532638 0.088788405 0.097733416 0.024746278
000370 1d ce 84 bd e9 26 ca 3b 05 d7 27 3d 5a 84 1b bd
       -0.064846255 0.0061691892 0.040976543 -0.037968017
000380 b3 dd f0 bd 12 7d dd bd 8e a6 5a bd a2 96 a3 bd
       -0.11761036 -0.10814871 -0.053381495 -0.07987715
000390 49 d5 a4 bd 1d 69 76 3c 35 3e ab 3d b2 e1 04 3d
       -0.080484934 0.015039709 0.083614744 0.032441802
0003a0 cf f5 1f bc f8 dc e5 3b 71 c5 be 3d 13 79 c3 bd
       -0.009763195 0.007014867 0.09315003 -0.095445774
0003b0 86 69 dd 3d 17 65 bf bd 49 7a af 3d 38 3b 47 3d
       0.108111426 -0.09345453 0.08568246 0.04864046
0003c0 8d 7f 52 3d 7b 2c cb 3d e6 81 e4 bd e0 9f 87 3d
       0.051391173 0.09920593 -0.11157589 0.066222906
0003d0 de e9 0e bd 4d 65 a4 3d c9 59 de 3d 88 d4 a7 bd
       -0.034891002 0.08027134 0.10856969 -0.08194834
0003e0 56 37 bb bd e4 9b 09 3d 71 b8 d6 3d ea ad dd 3d
       -0.09141414 0.033595935 0.10484398 0.10824187
0003f0 93 ab 9e 3d c3 d8 de 3d 98 5d 4e bc 85 3c c6 3d
       0.07747569 0.10881188 -0.012595557 0.09679512

network.0.bias f4 [32]
000000 8b 66 94 bd 33 0c c5 3c b8 31 a4 3c a1 f2 98 3c
       -0.07246121 0.024053669 0.020043239 0.018670382
000010 6b 1d d4 3c f3 31 87 3a 9b 0d f3 bd 8d ea 1e 3d
       0.025892934 0.0010314569 -0.118678294 0.038797904
000020 c8 f3 ff bd 19 25 0c 3d 68 67 35 3d f7 8c c1 3d
       -0.124976695 0.034215067 0.04428807 0.09450715
000030 a4 d5 d1 3d 16 26 86 3d a7 f7 8e 3d fd f7 9c 3d
       0.10245827 0.06550233 0.0698083 0.076644875
000040 b6 b1 cc bd b8 f2 a4 3d 9c 0f 20 3a 43 b1 40 bd
       -0.09994833 0.080541074 0.00061058416 -0.04704405
000050 38 76 8d bd b7 0d 56 bd c0 ef e1 3d c1 c3 c1 3c
       -0.06907314 -0.052259173 0.11032057 0.023652913
000060 c2 1f ec 3d e5 28 c2 bd 43 f7 b8 3d 28 66 b5 3d
       0.11529495 -0.09480456 0.090315364 0.088573754
000070 43 25 74 bd e7 11 b2 3d c0 14 34 bc d2 26 26 3b
       -0.059605848 0.08694821 -0.010991275 0.0025352729

network.2.weight f4 [16, 32]
000000 03 62 ad 3c c6 e8 64 bd 18 f6 fa 3d c9 e8 f8 3d
       0.0211649 -0.055886053 0.1225397 0.12153775
000010 44 1e 2b 3e 58 2f 3f bd 99 70 24 3e 3e 78 25 be
       0.16710764 -0.04667601 0.16058578 -0.1615915
000020 02 0d 2b 3e 12 5e 30 bd 84 0d 9b 3d cf fd 8a ba
       0.16704181 -0.043058462 0.07570937 -0.0010604205
000030 bb 26 9f 3b 18 ed 00 3d c1 a6 97 3d d7 cf b5 bc
       0.004856912 0.03147611 0.07404853 -0.022193832
000040 5a d4 c4 3d b8 4e cc 3d 0d 32 0a 3e de 33 26 be
       0.09610815 0.09975952 0.13495655 -0.16230723
000050 51 68 d3 3d 27 c3 19 3e 5e 6e c1 3d eb cf 65 3d
       0.10322631 0.15015851 0.09444879 0.05610649
000060 05 67 a8 bd 5c 2a 0d 3e 17 aa 33 3d 7e 9b fd bb
       -0.082227744 0.1378569 0.043863382 -0.0077394834
000070 5c b2 32 be b6 05 0a 3e 3f 56 20 bd 34 03 02 3e
       -0.17450851 0.13478741 -0.03914475 0.12696534
000080 1b d1 39 bc 36 37 99 3b 00 e8 b0 bd a1 23 c0 bc
       -0.011341359 0.004675771 -0.086380005 -0.02345449
000090 41 37 5d 3d c9 c5 21 3d a2 a9 c3 bc 35 fe fe 3d
       0.054007772 0.039495263 -0.023884598 0.1245083
0000a0 55 c9 23 be af 6b 2d be 26 77 41 3d 4f 30 e0 3d
       -0.15994771 -0.1693561 0.04723277 0.10946714
0000b0 55 a1 ca bd 1a 45 31 be 20 09 8f 3c 6f dc 3f 3d
       -0.09894053 -0.17311516 0.017460406 0.04684108
0000c0 c6 be 9e 3d 3c 7f 27 be ed b8 f3 bd d2 5b e6 bc
       0.07751231 -0.1635713 -0.11900506 -0.028119955
0000d0 07 aa 82 bd d2 6c 84 3c 0c 75 ad 3d 19 79 12 be
       -0.063800864 0.01616517 0.084695905 -0.14304008
0000e0 71 ce ff 3c ea 47 0d 3e 95 6d 93 bd 4b 05 0a be
       0.031226369 0.13796964 -0.071986355 -0.13478582
0000f0 b6 13 8d 3d 1d bc ca 3d 0f 6f 08 3e 6f 32 85 bd
       0.06888525 0.09899161 0.13323615 -0.0650376
000100 8c 80 14 be 75 5c 1b be 52 97 8f bd e8 bc db bd
       -0.14502162 -0.15171988 -0.07011284 -0.107293904
000110 91 c3 af bd cc 57 d8 bd ee 29 25 3e be 90 92 bd
       -0.08582223 -0.10563621 0.16129276 -0.07156514
000120 10 7d c7 bc ad 75 1a bc ef 6f 54 bd 83 86 16 be
       -0.024351627 -0.00942747 -0.05186456 -0.1469975
000130 28 6c 8f 3d 71 bf 88 bc 58 1d 0a be 24 f5 10 bd
       0.07003051 -0.016692849 -0.13487756 -0.035390034
000140 60 df 42 bd 3a ff 38 bd 13 d4 09 be e0 ba 78 bd
       -0.04757631 -0.045165278 -0.13459806 -0.060725093
000150 62 96 e7 3d a6 21 a7 3d 24 94 12 be 28 28 fb 3c
       0.1130798 0.08160715 -0.14314324 0.030658796
000160 58 08 03 be 92 e4 d7 3c 65 c8 83 3d 33 3e 36 bb
       -0.12796152 0.026354108 0.064347066 -0.002780807
000170 2a ae ba 3c cf 07 cf 3d f3 51 06 3e d7 28 0f be
       0.022788126 0.10108911 0.13117199 -0.13980423
000180 bf 74 d3 3d 30 7d 16 bd d8 b3 0e be 51 9a 16 be
       0.10325002 -0.03674048 -0.13935792 -0.14707305
000190 56 8e 7b bb a1 b2 26 be 16 ed cb 3d 12 a6 d9 3c
       -0.00383844 -0.16279079 0.0995733 0.026568446
0001a0 2b b0 44 3d 81 0b 3b bd 62 f4 76 3d 48 3e 0e 3e
       0.04801957 -0.045665268 0.060291655 0.13890946
0001b0 26 45 92 3c d4 8d af 3d 63 64 30 be d3 22 07 be
       0.017855238 0.085719734 -0.17225794 -0.13196878
0001c0 8f 11 c7 bd ec 85 84 bd bc 4d ba bc eb 5d a3 3c
       -0.09720146 -0.06470856 -0.022742145 0.019942245
0001d0 7e 95 9f bd 05 11 ed bd 7e 4d 30 3e 82 09 f7 3b
       -0.07792185 -0.11575512 0.17217061 0.007538975
0001e0 66 2f 31 3c d9 8a 93 3d a3 19 7c bc 52 83 07 3e
       0.010814523 0.072042175 -0.015386972 0.13233688
0001f0 89 00 a5 bd 26 8b 6b bc c3 f9 1d 3e 8d eb 2d 3d
       -0.08056743 -0.014376437 0.15427308 0.042460967
000200 90 0b 27 3e ab 79 89 bd 86 98 92 bc 9b ff 3f bd
       0.16313004 -0.067126594 -0.017894994 -0.046874624
000210 49 c4 bc bb ae 8e 81 3d ca 91 26 be f4 67 35 3e
       -0.0057607037 0.06326042 -0.16266552 0.17715436
000220 35 85 01 3e 46 70 53 bd 27 98 04 3d 3b 72 17 bd
       0.1264847 -0.051620744 0.032371666 -0.036974173
000230 ea ac a9 3d a9 7f b6 bd 27 ae a6 bc c2 4d 9e 3d
       0.08284934 -0.08911068 -0.020346714 0.07729675
000240 05 fd 1e be c3 d8 c0 bd 2c af 89 bb 68 90 88 bd
       -0.15526207 -0.09416344 -0.0042017903 -0.06668168
000250 20 8f 82 bc 81 94 27 be 04 7d 16 3e 79 66 f2 3d
       -0.015937388 -0.16365243 0.14696127 0.11835951
000260 ae a8 a2 3c 25 8e 2a 3e 28 7f 41 bd 7b c8 ae 3d
       0.019855823 0.16655786 -0.047240406 0.08534332
000270 f6 58 19 3e 88 23 92 bc b4 c6 38 bc 78 86 04 3e
       0.14975342 -0.017839208 -0.011277843 0.12941921
000280 85 82 76 3c ca b4 8d bd 1e 9f 8d bd 17 2e 2b 3e
       0.015045767 -0.069192484 -0.06915115 0.167168
000290 bc 64 1a be e7 13 0a 3e ec e2 39 3d 06 34 a2 3c
       -0.1507749 0.13484155 0.045382425 0.019800197
0002a0 58 95 05 3e c3 25 91 bd c4 72 06 be 65 92 2f be
       0.13045251 -0.070872806 -0.13129717 -0.17145689
0002b0 e6 4a f4 bc 8c dd 25 3e 37 86 74 3d 6a 28 0e 3e
       -0.02982087 0.16197795 0.05969831 0.13882604
0002c0 2b dc 48 bc 4c 72 81 3c c9 eb 9d bb 42 a4 2b 3e
       -0.012259523 0.015801571 -0.0048193675 0.16761878
0002d0 b1 24 2f 3e bb b9 0b bd 5b 17 ec 3d 8c ac 89 3d
       0.1710384 -0.034112673 0.11527892 0.06722364
0002e0 26 68 8c bd ae b5 d8 3d bf 41 e0 bd c2 94 e1 3c
       -0.06855802 0.10581528 -0.1095004 0.027536754
0002f0 b9 ec b2 bd e9 f6 01 3d f7 26 59 bd 9f aa 03 be
       -0.087365575 0.031729612 -0.053015675 -0.12858056
000300 2f c4 a0 3d 9b 15 22 be 73 00 2f 3e bb eb 2c be
       0.07849919 -0.15828554 0.17090015 -0.16886799
000310 1b c3 02 3d 6c 4d 75 3d df 82 ce 3c a9 2d 12 bd
       0.03192435 0.05988829 0.025208889 -0.035688076
000320 15 0a c8 bd 1a e1 f0 bd dd 34 2c be fb 6b 14 be
       -0.09767548 -0.11761685 -0.1681704 -0.14494316
000330 d4 02 ce 3d fd 7b 25 be 78 14 f3 bd 6f e8 9c 3d
       0.10059133 -0.16160579 -0.118691385 0.07661521
000340 a9 47 e9 3c 27 a1 1e 3e 45 ac c0 3c 97 4c 0c be
       0.028476553 0.15491162 0.023519645 -0.13701092
000350 a0 61 e7 3a f6 d5 d3 bc e5 82 97 bd 2b c9 8c 3c
       0.0017652996 -0.02585886 -0.07398013 0.017185768
000360 8f 14 01 be 1d e6 d5 3c 2f 3b dd 3d 04 ba 44 bc
       -0.12605499 0.026110703 0.10802304 -0.01200724
000370 5e c5 1b be 0a 91 ff bd e9 7f aa 3d 42 1a 25 be
       -0.15212008 -0.12478836 0.08325178 -0.16123298
000380 5c 11 66 3d e5 64 08 bd f2 a7 9d 3d 15 36 a6 3d
       0.0561689 -0.033299346 0.07698049 0.08115784
000390 1f 0e c0 bd 65 66 dd bc dc 0e 2b be d1 11 d9 3c
       -0.093776934 -0.027026365 -0.16704887 0.026497753
0003a0 a1 b0 49 3d 4a 5c 27 3e f5 16 2d be 2b 4c d4 3d
       0.049240712 0.16343799 -0.16903289 0.103660904
0003b0 8d f8 03 3e 0c 7e dc 3d 74 2f 97 bd 5e 6a 37 bb
       0.12887783 0.10766229 -0.07382098 -0.0027986984
0003c0 ae d8 19 3e 3a 8f dc 3d d5 7c 03 3d 6a 64 fa 3d
       0.15024063 0.10769506 0.03210147 0.12226184
0003d0 be 06 a6 bd 44 5e 6a bd bf cb 8b bd 8a b8 4f 3d
       -0.08106755 -0.057218805 -0.06825971 0.0507131
0003e0 5c e2 29 3d 87 1c 2e 3d 19 44 e8 3c 6d 2c a9 bd
       0.04147564 0.042507675 0.028352784 -0.08260427
0003f0 73 78 32 be 04 ef ec 3c 42 90 62 bc 29 61 de bd
       -0.1742876 0.028922565 -0.013828339 -0.108583756

network.2.bias f4 [16]
000000 7a 7c 21 be f6 51 26 be a0 d8 2d 3e 10 aa fa bd
       -0.1577014 -0.16242203 0.16977167 -0.12239468
000010 15 b2 1c 3e 6a 1c 3c bc bc 7e 9a 3d 5b a8 f5 bc
       0.15302308 -0.011481384 0.07543704 -0.029987505
000020 01 f1 a0 3d 5b 1e 23 bd 3c 5d 05 3d 81 85 28 3e
       0.07858468 -0.03982387 0.03255962 0.16457178
000030 9a 41 5c bd 7b fd dd bd 85 f4 da bd ac b8 a0 bd
       -0.0537735 -0.10839363 -0.1069117 -0.07847723

network.4.weight f4 [1, 16]
000000 4d de 70 be c8 0e cd bd 44 dc 2b be 34 6b 02 be
       -0.23522301 -0.10012585 -0.16783243 -0.12736207
000010 85 9a 46 3d a1 78 0b 3c 73 81 3f 3e 1b 03 22 3a
       0.048487205 0.008512647 0.18701725 0.00061802723
000020 28 e1 78 3e 4d c3 3c be 4e 33 0d 3e ff 68 06 be
       0.2430464 -0.18433876 0.13789102 -0.1312599
000030 e0 1c 28 bd d0 5b c4 bd 09 e9 6a be 31 73 82 3d
       -0.041043162 -0.09587824 -0.22940458 0.06369627
